['ByteSize', 'Clear', 'ClearExtension', 'ClearField', 'CopyFrom', 'DESCRIPTOR', 'DOC_STRING_FIELD_NUMBER', 'DiscardUnknownFields', 'Extensions', 'FindInitializationErrors', 'FromString', 'HasExtension', 'HasField', 'INITIALIZER_FIELD_NUMBER', 'INPUT_FIELD_NUMBER', 'IsInitialized', 'ListFields', 'MergeFrom', 'MergeFromString', 'NAME_FIELD_NUMBER', 'NODE_FIELD_NUMBER', 'OUTPUT_FIELD_NUMBER', 'ParseFromString', 'RegisterExtension', 'SerializePartialToString', 'SerializeToString', 'SetInParent', 'VALUE_INFO_FIELD_NUMBER', 'WhichOneof', '_CheckCalledFromGeneratedFile', '_SetListener', '__class__', '__deepcopy__', '__delattr__', '__dir__', '__doc__', '__eq__', '__format__', '__ge__', '__getattribute__', '__getstate__', '__gt__', '__hash__', '__init__', '__init_subclass__', '__le__', '__lt__', '__module__', '__ne__', '__new__', '__reduce__', '__reduce_ex__', '__repr__', '__setattr__', '__setstate__', '__sizeof__', '__slots__', '__str__', '__subclasshook__', '__unicode__', '_extensions_by_name', '_extensions_by_number']
0   input: "1"
input: "2"
output: "55"
op_type: "Conv"
attribute {
  name: "kernel_shape"
  ints: 3
  ints: 3
  type: INTS
}
attribute {
  name: "strides"
  ints: 2
  ints: 2
  type: INTS
}
attribute {
  name: "pads"
  ints: 0
  ints: 0
  ints: 0
  ints: 0
  type: INTS
}
attribute {
  name: "dilations"
  ints: 1
  ints: 1
  type: INTS
}
attribute {
  name: "group"
  i: 1
  type: INT
}

1   input: "55"
input: "3"
output: "56"
op_type: "Add"
attribute {
  name: "broadcast"
  i: 1
  type: INT
}
attribute {
  name: "axis"
  i: 1
  type: INT
}

2   input: "56"
output: "57"
op_type: "Relu"
doc_string: "/home/natu/anaconda3/lib/python3.6/site-packages/torch/nn/modules/activation.py(43): forward\n/home/natu/anaconda3/lib/python3.6/site-packages/torch/nn/modules/module.py(325): __call__\n/home/natu/anaconda3/lib/python3.6/site-packages/torch/nn/modules/container.py(67): forward\n/home/natu/anaconda3/lib/python3.6/site-packages/torch/nn/modules/module.py(325): __call__\n/home/natu/myproj/study_ml/onnx/onnx_read/squiize.py(104): forward\n/home/natu/anaconda3/lib/python3.6/site-packages/torch/nn/modules/module.py(325): __call__\n/home/natu/anaconda3/lib/python3.6/site-packages/torch/jit/__init__.py(236): traced_inner\n/home/natu/anaconda3/lib/python3.6/site-packages/torch/jit/__init__.py(259): wrapper\n/home/natu/anaconda3/lib/python3.6/site-packages/torch/jit/__init__.py(241): forward\n/home/natu/anaconda3/lib/python3.6/site-packages/torch/nn/modules/module.py(325): __call__\n/home/natu/anaconda3/lib/python3.6/site-packages/torch/jit/__init__.py(217): trace\n/home/natu/anaconda3/lib/python3.6/site-packages/torch/onnx/__init__.py(116): _export\n/home/natu/myproj/study_ml/onnx/onnx_read/squiize.py(146): <module>\n/home/natu/app/pycharm-community-2017.3.2/helpers/pydev/_pydev_imps/_pydev_execfile.py(18): execfile\n/home/natu/app/pycharm-community-2017.3.2/helpers/pydev/pydevd.py(1072): run\n/home/natu/app/pycharm-community-2017.3.2/helpers/pydev/pydevd.py(1662): main\n/home/natu/app/pycharm-community-2017.3.2/helpers/pydev/pydevd.py(1668): <module>\n"

3   input: "57"
output: "58"
op_type: "MaxPool"
attribute {
  name: "kernel_shape"
  ints: 3
  ints: 3
  type: INTS
}
attribute {
  name: "pads"
  ints: 0
  ints: 0
  type: INTS
}
attribute {
  name: "strides"
  ints: 2
  ints: 2
  type: INTS
}
doc_string: "/home/natu/anaconda3/lib/python3.6/site-packages/torch/nn/functional.py(334): max_pool2d\n/home/natu/anaconda3/lib/python3.6/site-packages/torch/nn/modules/pooling.py(143): forward\n/home/natu/anaconda3/lib/python3.6/site-packages/torch/nn/modules/module.py(325): __call__\n/home/natu/anaconda3/lib/python3.6/site-packages/torch/nn/modules/container.py(67): forward\n/home/natu/anaconda3/lib/python3.6/site-packages/torch/nn/modules/module.py(325): __call__\n/home/natu/myproj/study_ml/onnx/onnx_read/squiize.py(104): forward\n/home/natu/anaconda3/lib/python3.6/site-packages/torch/nn/modules/module.py(325): __call__\n/home/natu/anaconda3/lib/python3.6/site-packages/torch/jit/__init__.py(236): traced_inner\n/home/natu/anaconda3/lib/python3.6/site-packages/torch/jit/__init__.py(259): wrapper\n/home/natu/anaconda3/lib/python3.6/site-packages/torch/jit/__init__.py(241): forward\n/home/natu/anaconda3/lib/python3.6/site-packages/torch/nn/modules/module.py(325): __call__\n/home/natu/anaconda3/lib/python3.6/site-packages/torch/jit/__init__.py(217): trace\n/home/natu/anaconda3/lib/python3.6/site-packages/torch/onnx/__init__.py(116): _export\n/home/natu/myproj/study_ml/onnx/onnx_read/squiize.py(146): <module>\n/home/natu/app/pycharm-community-2017.3.2/helpers/pydev/_pydev_imps/_pydev_execfile.py(18): execfile\n/home/natu/app/pycharm-community-2017.3.2/helpers/pydev/pydevd.py(1072): run\n/home/natu/app/pycharm-community-2017.3.2/helpers/pydev/pydevd.py(1662): main\n/home/natu/app/pycharm-community-2017.3.2/helpers/pydev/pydevd.py(1668): <module>\n"

4   input: "58"
input: "4"
output: "60"
op_type: "Conv"
attribute {
  name: "kernel_shape"
  ints: 1
  ints: 1
  type: INTS
}
attribute {
  name: "strides"
  ints: 1
  ints: 1
  type: INTS
}
attribute {
  name: "pads"
  ints: 0
  ints: 0
  ints: 0
  ints: 0
  type: INTS
}
attribute {
  name: "dilations"
  ints: 1
  ints: 1
  type: INTS
}
attribute {
  name: "group"
  i: 1
  type: INT
}

5   input: "60"
input: "5"
output: "61"
op_type: "Add"
attribute {
  name: "broadcast"
  i: 1
  type: INT
}
attribute {
  name: "axis"
  i: 1
  type: INT
}

6   input: "61"
output: "62"
op_type: "Relu"
doc_string: "/home/natu/anaconda3/lib/python3.6/site-packages/torch/nn/modules/activation.py(43): forward\n/home/natu/anaconda3/lib/python3.6/site-packages/torch/nn/modules/module.py(325): __call__\n/home/natu/myproj/study_ml/onnx/onnx_read/squiize.py(38): forward\n/home/natu/anaconda3/lib/python3.6/site-packages/torch/nn/modules/module.py(325): __call__\n/home/natu/anaconda3/lib/python3.6/site-packages/torch/nn/modules/container.py(67): forward\n/home/natu/anaconda3/lib/python3.6/site-packages/torch/nn/modules/module.py(325): __call__\n/home/natu/myproj/study_ml/onnx/onnx_read/squiize.py(104): forward\n/home/natu/anaconda3/lib/python3.6/site-packages/torch/nn/modules/module.py(325): __call__\n/home/natu/anaconda3/lib/python3.6/site-packages/torch/jit/__init__.py(236): traced_inner\n/home/natu/anaconda3/lib/python3.6/site-packages/torch/jit/__init__.py(259): wrapper\n/home/natu/anaconda3/lib/python3.6/site-packages/torch/jit/__init__.py(241): forward\n/home/natu/anaconda3/lib/python3.6/site-packages/torch/nn/modules/module.py(325): __call__\n/home/natu/anaconda3/lib/python3.6/site-packages/torch/jit/__init__.py(217): trace\n/home/natu/anaconda3/lib/python3.6/site-packages/torch/onnx/__init__.py(116): _export\n/home/natu/myproj/study_ml/onnx/onnx_read/squiize.py(146): <module>\n/home/natu/app/pycharm-community-2017.3.2/helpers/pydev/_pydev_imps/_pydev_execfile.py(18): execfile\n/home/natu/app/pycharm-community-2017.3.2/helpers/pydev/pydevd.py(1072): run\n/home/natu/app/pycharm-community-2017.3.2/helpers/pydev/pydevd.py(1662): main\n/home/natu/app/pycharm-community-2017.3.2/helpers/pydev/pydevd.py(1668): <module>\n"

7   input: "62"
input: "6"
output: "64"
op_type: "Conv"
attribute {
  name: "kernel_shape"
  ints: 1
  ints: 1
  type: INTS
}
attribute {
  name: "strides"
  ints: 1
  ints: 1
  type: INTS
}
attribute {
  name: "pads"
  ints: 0
  ints: 0
  ints: 0
  ints: 0
  type: INTS
}
attribute {
  name: "dilations"
  ints: 1
  ints: 1
  type: INTS
}
attribute {
  name: "group"
  i: 1
  type: INT
}

8   input: "64"
input: "7"
output: "65"
op_type: "Add"
attribute {
  name: "broadcast"
  i: 1
  type: INT
}
attribute {
  name: "axis"
  i: 1
  type: INT
}

9   input: "65"
output: "66"
op_type: "Relu"
doc_string: "/home/natu/anaconda3/lib/python3.6/site-packages/torch/nn/modules/activation.py(43): forward\n/home/natu/anaconda3/lib/python3.6/site-packages/torch/nn/modules/module.py(325): __call__\n/home/natu/myproj/study_ml/onnx/onnx_read/squiize.py(40): forward\n/home/natu/anaconda3/lib/python3.6/site-packages/torch/nn/modules/module.py(325): __call__\n/home/natu/anaconda3/lib/python3.6/site-packages/torch/nn/modules/container.py(67): forward\n/home/natu/anaconda3/lib/python3.6/site-packages/torch/nn/modules/module.py(325): __call__\n/home/natu/myproj/study_ml/onnx/onnx_read/squiize.py(104): forward\n/home/natu/anaconda3/lib/python3.6/site-packages/torch/nn/modules/module.py(325): __call__\n/home/natu/anaconda3/lib/python3.6/site-packages/torch/jit/__init__.py(236): traced_inner\n/home/natu/anaconda3/lib/python3.6/site-packages/torch/jit/__init__.py(259): wrapper\n/home/natu/anaconda3/lib/python3.6/site-packages/torch/jit/__init__.py(241): forward\n/home/natu/anaconda3/lib/python3.6/site-packages/torch/nn/modules/module.py(325): __call__\n/home/natu/anaconda3/lib/python3.6/site-packages/torch/jit/__init__.py(217): trace\n/home/natu/anaconda3/lib/python3.6/site-packages/torch/onnx/__init__.py(116): _export\n/home/natu/myproj/study_ml/onnx/onnx_read/squiize.py(146): <module>\n/home/natu/app/pycharm-community-2017.3.2/helpers/pydev/_pydev_imps/_pydev_execfile.py(18): execfile\n/home/natu/app/pycharm-community-2017.3.2/helpers/pydev/pydevd.py(1072): run\n/home/natu/app/pycharm-community-2017.3.2/helpers/pydev/pydevd.py(1662): main\n/home/natu/app/pycharm-community-2017.3.2/helpers/pydev/pydevd.py(1668): <module>\n"

10   input: "62"
input: "8"
output: "68"
op_type: "Conv"
attribute {
  name: "kernel_shape"
  ints: 3
  ints: 3
  type: INTS
}
attribute {
  name: "strides"
  ints: 1
  ints: 1
  type: INTS
}
attribute {
  name: "pads"
  ints: 1
  ints: 1
  ints: 1
  ints: 1
  type: INTS
}
attribute {
  name: "dilations"
  ints: 1
  ints: 1
  type: INTS
}
attribute {
  name: "group"
  i: 1
  type: INT
}

11   input: "68"
input: "9"
output: "69"
op_type: "Add"
attribute {
  name: "broadcast"
  i: 1
  type: INT
}
attribute {
  name: "axis"
  i: 1
  type: INT
}

12   input: "69"
output: "70"
op_type: "Relu"
doc_string: "/home/natu/anaconda3/lib/python3.6/site-packages/torch/nn/modules/activation.py(43): forward\n/home/natu/anaconda3/lib/python3.6/site-packages/torch/nn/modules/module.py(325): __call__\n/home/natu/myproj/study_ml/onnx/onnx_read/squiize.py(41): forward\n/home/natu/anaconda3/lib/python3.6/site-packages/torch/nn/modules/module.py(325): __call__\n/home/natu/anaconda3/lib/python3.6/site-packages/torch/nn/modules/container.py(67): forward\n/home/natu/anaconda3/lib/python3.6/site-packages/torch/nn/modules/module.py(325): __call__\n/home/natu/myproj/study_ml/onnx/onnx_read/squiize.py(104): forward\n/home/natu/anaconda3/lib/python3.6/site-packages/torch/nn/modules/module.py(325): __call__\n/home/natu/anaconda3/lib/python3.6/site-packages/torch/jit/__init__.py(236): traced_inner\n/home/natu/anaconda3/lib/python3.6/site-packages/torch/jit/__init__.py(259): wrapper\n/home/natu/anaconda3/lib/python3.6/site-packages/torch/jit/__init__.py(241): forward\n/home/natu/anaconda3/lib/python3.6/site-packages/torch/nn/modules/module.py(325): __call__\n/home/natu/anaconda3/lib/python3.6/site-packages/torch/jit/__init__.py(217): trace\n/home/natu/anaconda3/lib/python3.6/site-packages/torch/onnx/__init__.py(116): _export\n/home/natu/myproj/study_ml/onnx/onnx_read/squiize.py(146): <module>\n/home/natu/app/pycharm-community-2017.3.2/helpers/pydev/_pydev_imps/_pydev_execfile.py(18): execfile\n/home/natu/app/pycharm-community-2017.3.2/helpers/pydev/pydevd.py(1072): run\n/home/natu/app/pycharm-community-2017.3.2/helpers/pydev/pydevd.py(1662): main\n/home/natu/app/pycharm-community-2017.3.2/helpers/pydev/pydevd.py(1668): <module>\n"

13   input: "66"
input: "70"
output: "71"
op_type: "Concat"
attribute {
  name: "axis"
  i: 1
  type: INT
}
doc_string: "/home/natu/myproj/study_ml/onnx/onnx_read/squiize.py(42): forward\n/home/natu/anaconda3/lib/python3.6/site-packages/torch/nn/modules/module.py(325): __call__\n/home/natu/anaconda3/lib/python3.6/site-packages/torch/nn/modules/container.py(67): forward\n/home/natu/anaconda3/lib/python3.6/site-packages/torch/nn/modules/module.py(325): __call__\n/home/natu/myproj/study_ml/onnx/onnx_read/squiize.py(104): forward\n/home/natu/anaconda3/lib/python3.6/site-packages/torch/nn/modules/module.py(325): __call__\n/home/natu/anaconda3/lib/python3.6/site-packages/torch/jit/__init__.py(236): traced_inner\n/home/natu/anaconda3/lib/python3.6/site-packages/torch/jit/__init__.py(259): wrapper\n/home/natu/anaconda3/lib/python3.6/site-packages/torch/jit/__init__.py(241): forward\n/home/natu/anaconda3/lib/python3.6/site-packages/torch/nn/modules/module.py(325): __call__\n/home/natu/anaconda3/lib/python3.6/site-packages/torch/jit/__init__.py(217): trace\n/home/natu/anaconda3/lib/python3.6/site-packages/torch/onnx/__init__.py(116): _export\n/home/natu/myproj/study_ml/onnx/onnx_read/squiize.py(146): <module>\n/home/natu/app/pycharm-community-2017.3.2/helpers/pydev/_pydev_imps/_pydev_execfile.py(18): execfile\n/home/natu/app/pycharm-community-2017.3.2/helpers/pydev/pydevd.py(1072): run\n/home/natu/app/pycharm-community-2017.3.2/helpers/pydev/pydevd.py(1662): main\n/home/natu/app/pycharm-community-2017.3.2/helpers/pydev/pydevd.py(1668): <module>\n"

14   input: "71"
input: "10"
output: "73"
op_type: "Conv"
attribute {
  name: "kernel_shape"
  ints: 1
  ints: 1
  type: INTS
}
attribute {
  name: "strides"
  ints: 1
  ints: 1
  type: INTS
}
attribute {
  name: "pads"
  ints: 0
  ints: 0
  ints: 0
  ints: 0
  type: INTS
}
attribute {
  name: "dilations"
  ints: 1
  ints: 1
  type: INTS
}
attribute {
  name: "group"
  i: 1
  type: INT
}

15   input: "73"
input: "11"
output: "74"
op_type: "Add"
attribute {
  name: "broadcast"
  i: 1
  type: INT
}
attribute {
  name: "axis"
  i: 1
  type: INT
}

16   input: "74"
output: "75"
op_type: "Relu"
doc_string: "/home/natu/anaconda3/lib/python3.6/site-packages/torch/nn/modules/activation.py(43): forward\n/home/natu/anaconda3/lib/python3.6/site-packages/torch/nn/modules/module.py(325): __call__\n/home/natu/myproj/study_ml/onnx/onnx_read/squiize.py(38): forward\n/home/natu/anaconda3/lib/python3.6/site-packages/torch/nn/modules/module.py(325): __call__\n/home/natu/anaconda3/lib/python3.6/site-packages/torch/nn/modules/container.py(67): forward\n/home/natu/anaconda3/lib/python3.6/site-packages/torch/nn/modules/module.py(325): __call__\n/home/natu/myproj/study_ml/onnx/onnx_read/squiize.py(104): forward\n/home/natu/anaconda3/lib/python3.6/site-packages/torch/nn/modules/module.py(325): __call__\n/home/natu/anaconda3/lib/python3.6/site-packages/torch/jit/__init__.py(236): traced_inner\n/home/natu/anaconda3/lib/python3.6/site-packages/torch/jit/__init__.py(259): wrapper\n/home/natu/anaconda3/lib/python3.6/site-packages/torch/jit/__init__.py(241): forward\n/home/natu/anaconda3/lib/python3.6/site-packages/torch/nn/modules/module.py(325): __call__\n/home/natu/anaconda3/lib/python3.6/site-packages/torch/jit/__init__.py(217): trace\n/home/natu/anaconda3/lib/python3.6/site-packages/torch/onnx/__init__.py(116): _export\n/home/natu/myproj/study_ml/onnx/onnx_read/squiize.py(146): <module>\n/home/natu/app/pycharm-community-2017.3.2/helpers/pydev/_pydev_imps/_pydev_execfile.py(18): execfile\n/home/natu/app/pycharm-community-2017.3.2/helpers/pydev/pydevd.py(1072): run\n/home/natu/app/pycharm-community-2017.3.2/helpers/pydev/pydevd.py(1662): main\n/home/natu/app/pycharm-community-2017.3.2/helpers/pydev/pydevd.py(1668): <module>\n"

17   input: "75"
input: "12"
output: "77"
op_type: "Conv"
attribute {
  name: "kernel_shape"
  ints: 1
  ints: 1
  type: INTS
}
attribute {
  name: "strides"
  ints: 1
  ints: 1
  type: INTS
}
attribute {
  name: "pads"
  ints: 0
  ints: 0
  ints: 0
  ints: 0
  type: INTS
}
attribute {
  name: "dilations"
  ints: 1
  ints: 1
  type: INTS
}
attribute {
  name: "group"
  i: 1
  type: INT
}

18   input: "77"
input: "13"
output: "78"
op_type: "Add"
attribute {
  name: "broadcast"
  i: 1
  type: INT
}
attribute {
  name: "axis"
  i: 1
  type: INT
}

19   input: "78"
output: "79"
op_type: "Relu"
doc_string: "/home/natu/anaconda3/lib/python3.6/site-packages/torch/nn/modules/activation.py(43): forward\n/home/natu/anaconda3/lib/python3.6/site-packages/torch/nn/modules/module.py(325): __call__\n/home/natu/myproj/study_ml/onnx/onnx_read/squiize.py(40): forward\n/home/natu/anaconda3/lib/python3.6/site-packages/torch/nn/modules/module.py(325): __call__\n/home/natu/anaconda3/lib/python3.6/site-packages/torch/nn/modules/container.py(67): forward\n/home/natu/anaconda3/lib/python3.6/site-packages/torch/nn/modules/module.py(325): __call__\n/home/natu/myproj/study_ml/onnx/onnx_read/squiize.py(104): forward\n/home/natu/anaconda3/lib/python3.6/site-packages/torch/nn/modules/module.py(325): __call__\n/home/natu/anaconda3/lib/python3.6/site-packages/torch/jit/__init__.py(236): traced_inner\n/home/natu/anaconda3/lib/python3.6/site-packages/torch/jit/__init__.py(259): wrapper\n/home/natu/anaconda3/lib/python3.6/site-packages/torch/jit/__init__.py(241): forward\n/home/natu/anaconda3/lib/python3.6/site-packages/torch/nn/modules/module.py(325): __call__\n/home/natu/anaconda3/lib/python3.6/site-packages/torch/jit/__init__.py(217): trace\n/home/natu/anaconda3/lib/python3.6/site-packages/torch/onnx/__init__.py(116): _export\n/home/natu/myproj/study_ml/onnx/onnx_read/squiize.py(146): <module>\n/home/natu/app/pycharm-community-2017.3.2/helpers/pydev/_pydev_imps/_pydev_execfile.py(18): execfile\n/home/natu/app/pycharm-community-2017.3.2/helpers/pydev/pydevd.py(1072): run\n/home/natu/app/pycharm-community-2017.3.2/helpers/pydev/pydevd.py(1662): main\n/home/natu/app/pycharm-community-2017.3.2/helpers/pydev/pydevd.py(1668): <module>\n"

20   input: "75"
input: "14"
output: "81"
op_type: "Conv"
attribute {
  name: "kernel_shape"
  ints: 3
  ints: 3
  type: INTS
}
attribute {
  name: "strides"
  ints: 1
  ints: 1
  type: INTS
}
attribute {
  name: "pads"
  ints: 1
  ints: 1
  ints: 1
  ints: 1
  type: INTS
}
attribute {
  name: "dilations"
  ints: 1
  ints: 1
  type: INTS
}
attribute {
  name: "group"
  i: 1
  type: INT
}

21   input: "81"
input: "15"
output: "82"
op_type: "Add"
attribute {
  name: "broadcast"
  i: 1
  type: INT
}
attribute {
  name: "axis"
  i: 1
  type: INT
}

22   input: "82"
output: "83"
op_type: "Relu"
doc_string: "/home/natu/anaconda3/lib/python3.6/site-packages/torch/nn/modules/activation.py(43): forward\n/home/natu/anaconda3/lib/python3.6/site-packages/torch/nn/modules/module.py(325): __call__\n/home/natu/myproj/study_ml/onnx/onnx_read/squiize.py(41): forward\n/home/natu/anaconda3/lib/python3.6/site-packages/torch/nn/modules/module.py(325): __call__\n/home/natu/anaconda3/lib/python3.6/site-packages/torch/nn/modules/container.py(67): forward\n/home/natu/anaconda3/lib/python3.6/site-packages/torch/nn/modules/module.py(325): __call__\n/home/natu/myproj/study_ml/onnx/onnx_read/squiize.py(104): forward\n/home/natu/anaconda3/lib/python3.6/site-packages/torch/nn/modules/module.py(325): __call__\n/home/natu/anaconda3/lib/python3.6/site-packages/torch/jit/__init__.py(236): traced_inner\n/home/natu/anaconda3/lib/python3.6/site-packages/torch/jit/__init__.py(259): wrapper\n/home/natu/anaconda3/lib/python3.6/site-packages/torch/jit/__init__.py(241): forward\n/home/natu/anaconda3/lib/python3.6/site-packages/torch/nn/modules/module.py(325): __call__\n/home/natu/anaconda3/lib/python3.6/site-packages/torch/jit/__init__.py(217): trace\n/home/natu/anaconda3/lib/python3.6/site-packages/torch/onnx/__init__.py(116): _export\n/home/natu/myproj/study_ml/onnx/onnx_read/squiize.py(146): <module>\n/home/natu/app/pycharm-community-2017.3.2/helpers/pydev/_pydev_imps/_pydev_execfile.py(18): execfile\n/home/natu/app/pycharm-community-2017.3.2/helpers/pydev/pydevd.py(1072): run\n/home/natu/app/pycharm-community-2017.3.2/helpers/pydev/pydevd.py(1662): main\n/home/natu/app/pycharm-community-2017.3.2/helpers/pydev/pydevd.py(1668): <module>\n"

23   input: "79"
input: "83"
output: "84"
op_type: "Concat"
attribute {
  name: "axis"
  i: 1
  type: INT
}
doc_string: "/home/natu/myproj/study_ml/onnx/onnx_read/squiize.py(42): forward\n/home/natu/anaconda3/lib/python3.6/site-packages/torch/nn/modules/module.py(325): __call__\n/home/natu/anaconda3/lib/python3.6/site-packages/torch/nn/modules/container.py(67): forward\n/home/natu/anaconda3/lib/python3.6/site-packages/torch/nn/modules/module.py(325): __call__\n/home/natu/myproj/study_ml/onnx/onnx_read/squiize.py(104): forward\n/home/natu/anaconda3/lib/python3.6/site-packages/torch/nn/modules/module.py(325): __call__\n/home/natu/anaconda3/lib/python3.6/site-packages/torch/jit/__init__.py(236): traced_inner\n/home/natu/anaconda3/lib/python3.6/site-packages/torch/jit/__init__.py(259): wrapper\n/home/natu/anaconda3/lib/python3.6/site-packages/torch/jit/__init__.py(241): forward\n/home/natu/anaconda3/lib/python3.6/site-packages/torch/nn/modules/module.py(325): __call__\n/home/natu/anaconda3/lib/python3.6/site-packages/torch/jit/__init__.py(217): trace\n/home/natu/anaconda3/lib/python3.6/site-packages/torch/onnx/__init__.py(116): _export\n/home/natu/myproj/study_ml/onnx/onnx_read/squiize.py(146): <module>\n/home/natu/app/pycharm-community-2017.3.2/helpers/pydev/_pydev_imps/_pydev_execfile.py(18): execfile\n/home/natu/app/pycharm-community-2017.3.2/helpers/pydev/pydevd.py(1072): run\n/home/natu/app/pycharm-community-2017.3.2/helpers/pydev/pydevd.py(1662): main\n/home/natu/app/pycharm-community-2017.3.2/helpers/pydev/pydevd.py(1668): <module>\n"

24   input: "84"
output: "85"
op_type: "MaxPool"
attribute {
  name: "kernel_shape"
  ints: 3
  ints: 3
  type: INTS
}
attribute {
  name: "pads"
  ints: 0
  ints: 0
  type: INTS
}
attribute {
  name: "strides"
  ints: 2
  ints: 2
  type: INTS
}
doc_string: "/home/natu/anaconda3/lib/python3.6/site-packages/torch/nn/functional.py(334): max_pool2d\n/home/natu/anaconda3/lib/python3.6/site-packages/torch/nn/modules/pooling.py(143): forward\n/home/natu/anaconda3/lib/python3.6/site-packages/torch/nn/modules/module.py(325): __call__\n/home/natu/anaconda3/lib/python3.6/site-packages/torch/nn/modules/container.py(67): forward\n/home/natu/anaconda3/lib/python3.6/site-packages/torch/nn/modules/module.py(325): __call__\n/home/natu/myproj/study_ml/onnx/onnx_read/squiize.py(104): forward\n/home/natu/anaconda3/lib/python3.6/site-packages/torch/nn/modules/module.py(325): __call__\n/home/natu/anaconda3/lib/python3.6/site-packages/torch/jit/__init__.py(236): traced_inner\n/home/natu/anaconda3/lib/python3.6/site-packages/torch/jit/__init__.py(259): wrapper\n/home/natu/anaconda3/lib/python3.6/site-packages/torch/jit/__init__.py(241): forward\n/home/natu/anaconda3/lib/python3.6/site-packages/torch/nn/modules/module.py(325): __call__\n/home/natu/anaconda3/lib/python3.6/site-packages/torch/jit/__init__.py(217): trace\n/home/natu/anaconda3/lib/python3.6/site-packages/torch/onnx/__init__.py(116): _export\n/home/natu/myproj/study_ml/onnx/onnx_read/squiize.py(146): <module>\n/home/natu/app/pycharm-community-2017.3.2/helpers/pydev/_pydev_imps/_pydev_execfile.py(18): execfile\n/home/natu/app/pycharm-community-2017.3.2/helpers/pydev/pydevd.py(1072): run\n/home/natu/app/pycharm-community-2017.3.2/helpers/pydev/pydevd.py(1662): main\n/home/natu/app/pycharm-community-2017.3.2/helpers/pydev/pydevd.py(1668): <module>\n"

25   input: "85"
input: "16"
output: "87"
op_type: "Conv"
attribute {
  name: "kernel_shape"
  ints: 1
  ints: 1
  type: INTS
}
attribute {
  name: "strides"
  ints: 1
  ints: 1
  type: INTS
}
attribute {
  name: "pads"
  ints: 0
  ints: 0
  ints: 0
  ints: 0
  type: INTS
}
attribute {
  name: "dilations"
  ints: 1
  ints: 1
  type: INTS
}
attribute {
  name: "group"
  i: 1
  type: INT
}

26   input: "87"
input: "17"
output: "88"
op_type: "Add"
attribute {
  name: "broadcast"
  i: 1
  type: INT
}
attribute {
  name: "axis"
  i: 1
  type: INT
}

27   input: "88"
output: "89"
op_type: "Relu"
doc_string: "/home/natu/anaconda3/lib/python3.6/site-packages/torch/nn/modules/activation.py(43): forward\n/home/natu/anaconda3/lib/python3.6/site-packages/torch/nn/modules/module.py(325): __call__\n/home/natu/myproj/study_ml/onnx/onnx_read/squiize.py(38): forward\n/home/natu/anaconda3/lib/python3.6/site-packages/torch/nn/modules/module.py(325): __call__\n/home/natu/anaconda3/lib/python3.6/site-packages/torch/nn/modules/container.py(67): forward\n/home/natu/anaconda3/lib/python3.6/site-packages/torch/nn/modules/module.py(325): __call__\n/home/natu/myproj/study_ml/onnx/onnx_read/squiize.py(104): forward\n/home/natu/anaconda3/lib/python3.6/site-packages/torch/nn/modules/module.py(325): __call__\n/home/natu/anaconda3/lib/python3.6/site-packages/torch/jit/__init__.py(236): traced_inner\n/home/natu/anaconda3/lib/python3.6/site-packages/torch/jit/__init__.py(259): wrapper\n/home/natu/anaconda3/lib/python3.6/site-packages/torch/jit/__init__.py(241): forward\n/home/natu/anaconda3/lib/python3.6/site-packages/torch/nn/modules/module.py(325): __call__\n/home/natu/anaconda3/lib/python3.6/site-packages/torch/jit/__init__.py(217): trace\n/home/natu/anaconda3/lib/python3.6/site-packages/torch/onnx/__init__.py(116): _export\n/home/natu/myproj/study_ml/onnx/onnx_read/squiize.py(146): <module>\n/home/natu/app/pycharm-community-2017.3.2/helpers/pydev/_pydev_imps/_pydev_execfile.py(18): execfile\n/home/natu/app/pycharm-community-2017.3.2/helpers/pydev/pydevd.py(1072): run\n/home/natu/app/pycharm-community-2017.3.2/helpers/pydev/pydevd.py(1662): main\n/home/natu/app/pycharm-community-2017.3.2/helpers/pydev/pydevd.py(1668): <module>\n"

28   input: "89"
input: "18"
output: "91"
op_type: "Conv"
attribute {
  name: "kernel_shape"
  ints: 1
  ints: 1
  type: INTS
}
attribute {
  name: "strides"
  ints: 1
  ints: 1
  type: INTS
}
attribute {
  name: "pads"
  ints: 0
  ints: 0
  ints: 0
  ints: 0
  type: INTS
}
attribute {
  name: "dilations"
  ints: 1
  ints: 1
  type: INTS
}
attribute {
  name: "group"
  i: 1
  type: INT
}

29   input: "91"
input: "19"
output: "92"
op_type: "Add"
attribute {
  name: "broadcast"
  i: 1
  type: INT
}
attribute {
  name: "axis"
  i: 1
  type: INT
}

30   input: "92"
output: "93"
op_type: "Relu"
doc_string: "/home/natu/anaconda3/lib/python3.6/site-packages/torch/nn/modules/activation.py(43): forward\n/home/natu/anaconda3/lib/python3.6/site-packages/torch/nn/modules/module.py(325): __call__\n/home/natu/myproj/study_ml/onnx/onnx_read/squiize.py(40): forward\n/home/natu/anaconda3/lib/python3.6/site-packages/torch/nn/modules/module.py(325): __call__\n/home/natu/anaconda3/lib/python3.6/site-packages/torch/nn/modules/container.py(67): forward\n/home/natu/anaconda3/lib/python3.6/site-packages/torch/nn/modules/module.py(325): __call__\n/home/natu/myproj/study_ml/onnx/onnx_read/squiize.py(104): forward\n/home/natu/anaconda3/lib/python3.6/site-packages/torch/nn/modules/module.py(325): __call__\n/home/natu/anaconda3/lib/python3.6/site-packages/torch/jit/__init__.py(236): traced_inner\n/home/natu/anaconda3/lib/python3.6/site-packages/torch/jit/__init__.py(259): wrapper\n/home/natu/anaconda3/lib/python3.6/site-packages/torch/jit/__init__.py(241): forward\n/home/natu/anaconda3/lib/python3.6/site-packages/torch/nn/modules/module.py(325): __call__\n/home/natu/anaconda3/lib/python3.6/site-packages/torch/jit/__init__.py(217): trace\n/home/natu/anaconda3/lib/python3.6/site-packages/torch/onnx/__init__.py(116): _export\n/home/natu/myproj/study_ml/onnx/onnx_read/squiize.py(146): <module>\n/home/natu/app/pycharm-community-2017.3.2/helpers/pydev/_pydev_imps/_pydev_execfile.py(18): execfile\n/home/natu/app/pycharm-community-2017.3.2/helpers/pydev/pydevd.py(1072): run\n/home/natu/app/pycharm-community-2017.3.2/helpers/pydev/pydevd.py(1662): main\n/home/natu/app/pycharm-community-2017.3.2/helpers/pydev/pydevd.py(1668): <module>\n"

31   input: "89"
input: "20"
output: "95"
op_type: "Conv"
attribute {
  name: "kernel_shape"
  ints: 3
  ints: 3
  type: INTS
}
attribute {
  name: "strides"
  ints: 1
  ints: 1
  type: INTS
}
attribute {
  name: "pads"
  ints: 1
  ints: 1
  ints: 1
  ints: 1
  type: INTS
}
attribute {
  name: "dilations"
  ints: 1
  ints: 1
  type: INTS
}
attribute {
  name: "group"
  i: 1
  type: INT
}

32   input: "95"
input: "21"
output: "96"
op_type: "Add"
attribute {
  name: "broadcast"
  i: 1
  type: INT
}
attribute {
  name: "axis"
  i: 1
  type: INT
}

33   input: "96"
output: "97"
op_type: "Relu"
doc_string: "/home/natu/anaconda3/lib/python3.6/site-packages/torch/nn/modules/activation.py(43): forward\n/home/natu/anaconda3/lib/python3.6/site-packages/torch/nn/modules/module.py(325): __call__\n/home/natu/myproj/study_ml/onnx/onnx_read/squiize.py(41): forward\n/home/natu/anaconda3/lib/python3.6/site-packages/torch/nn/modules/module.py(325): __call__\n/home/natu/anaconda3/lib/python3.6/site-packages/torch/nn/modules/container.py(67): forward\n/home/natu/anaconda3/lib/python3.6/site-packages/torch/nn/modules/module.py(325): __call__\n/home/natu/myproj/study_ml/onnx/onnx_read/squiize.py(104): forward\n/home/natu/anaconda3/lib/python3.6/site-packages/torch/nn/modules/module.py(325): __call__\n/home/natu/anaconda3/lib/python3.6/site-packages/torch/jit/__init__.py(236): traced_inner\n/home/natu/anaconda3/lib/python3.6/site-packages/torch/jit/__init__.py(259): wrapper\n/home/natu/anaconda3/lib/python3.6/site-packages/torch/jit/__init__.py(241): forward\n/home/natu/anaconda3/lib/python3.6/site-packages/torch/nn/modules/module.py(325): __call__\n/home/natu/anaconda3/lib/python3.6/site-packages/torch/jit/__init__.py(217): trace\n/home/natu/anaconda3/lib/python3.6/site-packages/torch/onnx/__init__.py(116): _export\n/home/natu/myproj/study_ml/onnx/onnx_read/squiize.py(146): <module>\n/home/natu/app/pycharm-community-2017.3.2/helpers/pydev/_pydev_imps/_pydev_execfile.py(18): execfile\n/home/natu/app/pycharm-community-2017.3.2/helpers/pydev/pydevd.py(1072): run\n/home/natu/app/pycharm-community-2017.3.2/helpers/pydev/pydevd.py(1662): main\n/home/natu/app/pycharm-community-2017.3.2/helpers/pydev/pydevd.py(1668): <module>\n"

34   input: "93"
input: "97"
output: "98"
op_type: "Concat"
attribute {
  name: "axis"
  i: 1
  type: INT
}
doc_string: "/home/natu/myproj/study_ml/onnx/onnx_read/squiize.py(42): forward\n/home/natu/anaconda3/lib/python3.6/site-packages/torch/nn/modules/module.py(325): __call__\n/home/natu/anaconda3/lib/python3.6/site-packages/torch/nn/modules/container.py(67): forward\n/home/natu/anaconda3/lib/python3.6/site-packages/torch/nn/modules/module.py(325): __call__\n/home/natu/myproj/study_ml/onnx/onnx_read/squiize.py(104): forward\n/home/natu/anaconda3/lib/python3.6/site-packages/torch/nn/modules/module.py(325): __call__\n/home/natu/anaconda3/lib/python3.6/site-packages/torch/jit/__init__.py(236): traced_inner\n/home/natu/anaconda3/lib/python3.6/site-packages/torch/jit/__init__.py(259): wrapper\n/home/natu/anaconda3/lib/python3.6/site-packages/torch/jit/__init__.py(241): forward\n/home/natu/anaconda3/lib/python3.6/site-packages/torch/nn/modules/module.py(325): __call__\n/home/natu/anaconda3/lib/python3.6/site-packages/torch/jit/__init__.py(217): trace\n/home/natu/anaconda3/lib/python3.6/site-packages/torch/onnx/__init__.py(116): _export\n/home/natu/myproj/study_ml/onnx/onnx_read/squiize.py(146): <module>\n/home/natu/app/pycharm-community-2017.3.2/helpers/pydev/_pydev_imps/_pydev_execfile.py(18): execfile\n/home/natu/app/pycharm-community-2017.3.2/helpers/pydev/pydevd.py(1072): run\n/home/natu/app/pycharm-community-2017.3.2/helpers/pydev/pydevd.py(1662): main\n/home/natu/app/pycharm-community-2017.3.2/helpers/pydev/pydevd.py(1668): <module>\n"

35   input: "98"
input: "22"
output: "100"
op_type: "Conv"
attribute {
  name: "kernel_shape"
  ints: 1
  ints: 1
  type: INTS
}
attribute {
  name: "strides"
  ints: 1
  ints: 1
  type: INTS
}
attribute {
  name: "pads"
  ints: 0
  ints: 0
  ints: 0
  ints: 0
  type: INTS
}
attribute {
  name: "dilations"
  ints: 1
  ints: 1
  type: INTS
}
attribute {
  name: "group"
  i: 1
  type: INT
}

36   input: "100"
input: "23"
output: "101"
op_type: "Add"
attribute {
  name: "broadcast"
  i: 1
  type: INT
}
attribute {
  name: "axis"
  i: 1
  type: INT
}

37   input: "101"
output: "102"
op_type: "Relu"
doc_string: "/home/natu/anaconda3/lib/python3.6/site-packages/torch/nn/modules/activation.py(43): forward\n/home/natu/anaconda3/lib/python3.6/site-packages/torch/nn/modules/module.py(325): __call__\n/home/natu/myproj/study_ml/onnx/onnx_read/squiize.py(38): forward\n/home/natu/anaconda3/lib/python3.6/site-packages/torch/nn/modules/module.py(325): __call__\n/home/natu/anaconda3/lib/python3.6/site-packages/torch/nn/modules/container.py(67): forward\n/home/natu/anaconda3/lib/python3.6/site-packages/torch/nn/modules/module.py(325): __call__\n/home/natu/myproj/study_ml/onnx/onnx_read/squiize.py(104): forward\n/home/natu/anaconda3/lib/python3.6/site-packages/torch/nn/modules/module.py(325): __call__\n/home/natu/anaconda3/lib/python3.6/site-packages/torch/jit/__init__.py(236): traced_inner\n/home/natu/anaconda3/lib/python3.6/site-packages/torch/jit/__init__.py(259): wrapper\n/home/natu/anaconda3/lib/python3.6/site-packages/torch/jit/__init__.py(241): forward\n/home/natu/anaconda3/lib/python3.6/site-packages/torch/nn/modules/module.py(325): __call__\n/home/natu/anaconda3/lib/python3.6/site-packages/torch/jit/__init__.py(217): trace\n/home/natu/anaconda3/lib/python3.6/site-packages/torch/onnx/__init__.py(116): _export\n/home/natu/myproj/study_ml/onnx/onnx_read/squiize.py(146): <module>\n/home/natu/app/pycharm-community-2017.3.2/helpers/pydev/_pydev_imps/_pydev_execfile.py(18): execfile\n/home/natu/app/pycharm-community-2017.3.2/helpers/pydev/pydevd.py(1072): run\n/home/natu/app/pycharm-community-2017.3.2/helpers/pydev/pydevd.py(1662): main\n/home/natu/app/pycharm-community-2017.3.2/helpers/pydev/pydevd.py(1668): <module>\n"

38   input: "102"
input: "24"
output: "104"
op_type: "Conv"
attribute {
  name: "kernel_shape"
  ints: 1
  ints: 1
  type: INTS
}
attribute {
  name: "strides"
  ints: 1
  ints: 1
  type: INTS
}
attribute {
  name: "pads"
  ints: 0
  ints: 0
  ints: 0
  ints: 0
  type: INTS
}
attribute {
  name: "dilations"
  ints: 1
  ints: 1
  type: INTS
}
attribute {
  name: "group"
  i: 1
  type: INT
}

39   input: "104"
input: "25"
output: "105"
op_type: "Add"
attribute {
  name: "broadcast"
  i: 1
  type: INT
}
attribute {
  name: "axis"
  i: 1
  type: INT
}

40   input: "105"
output: "106"
op_type: "Relu"
doc_string: "/home/natu/anaconda3/lib/python3.6/site-packages/torch/nn/modules/activation.py(43): forward\n/home/natu/anaconda3/lib/python3.6/site-packages/torch/nn/modules/module.py(325): __call__\n/home/natu/myproj/study_ml/onnx/onnx_read/squiize.py(40): forward\n/home/natu/anaconda3/lib/python3.6/site-packages/torch/nn/modules/module.py(325): __call__\n/home/natu/anaconda3/lib/python3.6/site-packages/torch/nn/modules/container.py(67): forward\n/home/natu/anaconda3/lib/python3.6/site-packages/torch/nn/modules/module.py(325): __call__\n/home/natu/myproj/study_ml/onnx/onnx_read/squiize.py(104): forward\n/home/natu/anaconda3/lib/python3.6/site-packages/torch/nn/modules/module.py(325): __call__\n/home/natu/anaconda3/lib/python3.6/site-packages/torch/jit/__init__.py(236): traced_inner\n/home/natu/anaconda3/lib/python3.6/site-packages/torch/jit/__init__.py(259): wrapper\n/home/natu/anaconda3/lib/python3.6/site-packages/torch/jit/__init__.py(241): forward\n/home/natu/anaconda3/lib/python3.6/site-packages/torch/nn/modules/module.py(325): __call__\n/home/natu/anaconda3/lib/python3.6/site-packages/torch/jit/__init__.py(217): trace\n/home/natu/anaconda3/lib/python3.6/site-packages/torch/onnx/__init__.py(116): _export\n/home/natu/myproj/study_ml/onnx/onnx_read/squiize.py(146): <module>\n/home/natu/app/pycharm-community-2017.3.2/helpers/pydev/_pydev_imps/_pydev_execfile.py(18): execfile\n/home/natu/app/pycharm-community-2017.3.2/helpers/pydev/pydevd.py(1072): run\n/home/natu/app/pycharm-community-2017.3.2/helpers/pydev/pydevd.py(1662): main\n/home/natu/app/pycharm-community-2017.3.2/helpers/pydev/pydevd.py(1668): <module>\n"

41   input: "102"
input: "26"
output: "108"
op_type: "Conv"
attribute {
  name: "kernel_shape"
  ints: 3
  ints: 3
  type: INTS
}
attribute {
  name: "strides"
  ints: 1
  ints: 1
  type: INTS
}
attribute {
  name: "pads"
  ints: 1
  ints: 1
  ints: 1
  ints: 1
  type: INTS
}
attribute {
  name: "dilations"
  ints: 1
  ints: 1
  type: INTS
}
attribute {
  name: "group"
  i: 1
  type: INT
}

42   input: "108"
input: "27"
output: "109"
op_type: "Add"
attribute {
  name: "broadcast"
  i: 1
  type: INT
}
attribute {
  name: "axis"
  i: 1
  type: INT
}

43   input: "109"
output: "110"
op_type: "Relu"
doc_string: "/home/natu/anaconda3/lib/python3.6/site-packages/torch/nn/modules/activation.py(43): forward\n/home/natu/anaconda3/lib/python3.6/site-packages/torch/nn/modules/module.py(325): __call__\n/home/natu/myproj/study_ml/onnx/onnx_read/squiize.py(41): forward\n/home/natu/anaconda3/lib/python3.6/site-packages/torch/nn/modules/module.py(325): __call__\n/home/natu/anaconda3/lib/python3.6/site-packages/torch/nn/modules/container.py(67): forward\n/home/natu/anaconda3/lib/python3.6/site-packages/torch/nn/modules/module.py(325): __call__\n/home/natu/myproj/study_ml/onnx/onnx_read/squiize.py(104): forward\n/home/natu/anaconda3/lib/python3.6/site-packages/torch/nn/modules/module.py(325): __call__\n/home/natu/anaconda3/lib/python3.6/site-packages/torch/jit/__init__.py(236): traced_inner\n/home/natu/anaconda3/lib/python3.6/site-packages/torch/jit/__init__.py(259): wrapper\n/home/natu/anaconda3/lib/python3.6/site-packages/torch/jit/__init__.py(241): forward\n/home/natu/anaconda3/lib/python3.6/site-packages/torch/nn/modules/module.py(325): __call__\n/home/natu/anaconda3/lib/python3.6/site-packages/torch/jit/__init__.py(217): trace\n/home/natu/anaconda3/lib/python3.6/site-packages/torch/onnx/__init__.py(116): _export\n/home/natu/myproj/study_ml/onnx/onnx_read/squiize.py(146): <module>\n/home/natu/app/pycharm-community-2017.3.2/helpers/pydev/_pydev_imps/_pydev_execfile.py(18): execfile\n/home/natu/app/pycharm-community-2017.3.2/helpers/pydev/pydevd.py(1072): run\n/home/natu/app/pycharm-community-2017.3.2/helpers/pydev/pydevd.py(1662): main\n/home/natu/app/pycharm-community-2017.3.2/helpers/pydev/pydevd.py(1668): <module>\n"

44   input: "106"
input: "110"
output: "111"
op_type: "Concat"
attribute {
  name: "axis"
  i: 1
  type: INT
}
doc_string: "/home/natu/myproj/study_ml/onnx/onnx_read/squiize.py(42): forward\n/home/natu/anaconda3/lib/python3.6/site-packages/torch/nn/modules/module.py(325): __call__\n/home/natu/anaconda3/lib/python3.6/site-packages/torch/nn/modules/container.py(67): forward\n/home/natu/anaconda3/lib/python3.6/site-packages/torch/nn/modules/module.py(325): __call__\n/home/natu/myproj/study_ml/onnx/onnx_read/squiize.py(104): forward\n/home/natu/anaconda3/lib/python3.6/site-packages/torch/nn/modules/module.py(325): __call__\n/home/natu/anaconda3/lib/python3.6/site-packages/torch/jit/__init__.py(236): traced_inner\n/home/natu/anaconda3/lib/python3.6/site-packages/torch/jit/__init__.py(259): wrapper\n/home/natu/anaconda3/lib/python3.6/site-packages/torch/jit/__init__.py(241): forward\n/home/natu/anaconda3/lib/python3.6/site-packages/torch/nn/modules/module.py(325): __call__\n/home/natu/anaconda3/lib/python3.6/site-packages/torch/jit/__init__.py(217): trace\n/home/natu/anaconda3/lib/python3.6/site-packages/torch/onnx/__init__.py(116): _export\n/home/natu/myproj/study_ml/onnx/onnx_read/squiize.py(146): <module>\n/home/natu/app/pycharm-community-2017.3.2/helpers/pydev/_pydev_imps/_pydev_execfile.py(18): execfile\n/home/natu/app/pycharm-community-2017.3.2/helpers/pydev/pydevd.py(1072): run\n/home/natu/app/pycharm-community-2017.3.2/helpers/pydev/pydevd.py(1662): main\n/home/natu/app/pycharm-community-2017.3.2/helpers/pydev/pydevd.py(1668): <module>\n"

45   input: "111"
output: "112"
op_type: "MaxPool"
attribute {
  name: "kernel_shape"
  ints: 3
  ints: 3
  type: INTS
}
attribute {
  name: "pads"
  ints: 0
  ints: 0
  type: INTS
}
attribute {
  name: "strides"
  ints: 2
  ints: 2
  type: INTS
}
doc_string: "/home/natu/anaconda3/lib/python3.6/site-packages/torch/nn/functional.py(334): max_pool2d\n/home/natu/anaconda3/lib/python3.6/site-packages/torch/nn/modules/pooling.py(143): forward\n/home/natu/anaconda3/lib/python3.6/site-packages/torch/nn/modules/module.py(325): __call__\n/home/natu/anaconda3/lib/python3.6/site-packages/torch/nn/modules/container.py(67): forward\n/home/natu/anaconda3/lib/python3.6/site-packages/torch/nn/modules/module.py(325): __call__\n/home/natu/myproj/study_ml/onnx/onnx_read/squiize.py(104): forward\n/home/natu/anaconda3/lib/python3.6/site-packages/torch/nn/modules/module.py(325): __call__\n/home/natu/anaconda3/lib/python3.6/site-packages/torch/jit/__init__.py(236): traced_inner\n/home/natu/anaconda3/lib/python3.6/site-packages/torch/jit/__init__.py(259): wrapper\n/home/natu/anaconda3/lib/python3.6/site-packages/torch/jit/__init__.py(241): forward\n/home/natu/anaconda3/lib/python3.6/site-packages/torch/nn/modules/module.py(325): __call__\n/home/natu/anaconda3/lib/python3.6/site-packages/torch/jit/__init__.py(217): trace\n/home/natu/anaconda3/lib/python3.6/site-packages/torch/onnx/__init__.py(116): _export\n/home/natu/myproj/study_ml/onnx/onnx_read/squiize.py(146): <module>\n/home/natu/app/pycharm-community-2017.3.2/helpers/pydev/_pydev_imps/_pydev_execfile.py(18): execfile\n/home/natu/app/pycharm-community-2017.3.2/helpers/pydev/pydevd.py(1072): run\n/home/natu/app/pycharm-community-2017.3.2/helpers/pydev/pydevd.py(1662): main\n/home/natu/app/pycharm-community-2017.3.2/helpers/pydev/pydevd.py(1668): <module>\n"

46   input: "112"
input: "28"
output: "114"
op_type: "Conv"
attribute {
  name: "kernel_shape"
  ints: 1
  ints: 1
  type: INTS
}
attribute {
  name: "strides"
  ints: 1
  ints: 1
  type: INTS
}
attribute {
  name: "pads"
  ints: 0
  ints: 0
  ints: 0
  ints: 0
  type: INTS
}
attribute {
  name: "dilations"
  ints: 1
  ints: 1
  type: INTS
}
attribute {
  name: "group"
  i: 1
  type: INT
}

47   input: "114"
input: "29"
output: "115"
op_type: "Add"
attribute {
  name: "broadcast"
  i: 1
  type: INT
}
attribute {
  name: "axis"
  i: 1
  type: INT
}

48   input: "115"
output: "116"
op_type: "Relu"
doc_string: "/home/natu/anaconda3/lib/python3.6/site-packages/torch/nn/modules/activation.py(43): forward\n/home/natu/anaconda3/lib/python3.6/site-packages/torch/nn/modules/module.py(325): __call__\n/home/natu/myproj/study_ml/onnx/onnx_read/squiize.py(38): forward\n/home/natu/anaconda3/lib/python3.6/site-packages/torch/nn/modules/module.py(325): __call__\n/home/natu/anaconda3/lib/python3.6/site-packages/torch/nn/modules/container.py(67): forward\n/home/natu/anaconda3/lib/python3.6/site-packages/torch/nn/modules/module.py(325): __call__\n/home/natu/myproj/study_ml/onnx/onnx_read/squiize.py(104): forward\n/home/natu/anaconda3/lib/python3.6/site-packages/torch/nn/modules/module.py(325): __call__\n/home/natu/anaconda3/lib/python3.6/site-packages/torch/jit/__init__.py(236): traced_inner\n/home/natu/anaconda3/lib/python3.6/site-packages/torch/jit/__init__.py(259): wrapper\n/home/natu/anaconda3/lib/python3.6/site-packages/torch/jit/__init__.py(241): forward\n/home/natu/anaconda3/lib/python3.6/site-packages/torch/nn/modules/module.py(325): __call__\n/home/natu/anaconda3/lib/python3.6/site-packages/torch/jit/__init__.py(217): trace\n/home/natu/anaconda3/lib/python3.6/site-packages/torch/onnx/__init__.py(116): _export\n/home/natu/myproj/study_ml/onnx/onnx_read/squiize.py(146): <module>\n/home/natu/app/pycharm-community-2017.3.2/helpers/pydev/_pydev_imps/_pydev_execfile.py(18): execfile\n/home/natu/app/pycharm-community-2017.3.2/helpers/pydev/pydevd.py(1072): run\n/home/natu/app/pycharm-community-2017.3.2/helpers/pydev/pydevd.py(1662): main\n/home/natu/app/pycharm-community-2017.3.2/helpers/pydev/pydevd.py(1668): <module>\n"

49   input: "116"
input: "30"
output: "118"
op_type: "Conv"
attribute {
  name: "kernel_shape"
  ints: 1
  ints: 1
  type: INTS
}
attribute {
  name: "strides"
  ints: 1
  ints: 1
  type: INTS
}
attribute {
  name: "pads"
  ints: 0
  ints: 0
  ints: 0
  ints: 0
  type: INTS
}
attribute {
  name: "dilations"
  ints: 1
  ints: 1
  type: INTS
}
attribute {
  name: "group"
  i: 1
  type: INT
}

50   input: "118"
input: "31"
output: "119"
op_type: "Add"
attribute {
  name: "broadcast"
  i: 1
  type: INT
}
attribute {
  name: "axis"
  i: 1
  type: INT
}

51   input: "119"
output: "120"
op_type: "Relu"
doc_string: "/home/natu/anaconda3/lib/python3.6/site-packages/torch/nn/modules/activation.py(43): forward\n/home/natu/anaconda3/lib/python3.6/site-packages/torch/nn/modules/module.py(325): __call__\n/home/natu/myproj/study_ml/onnx/onnx_read/squiize.py(40): forward\n/home/natu/anaconda3/lib/python3.6/site-packages/torch/nn/modules/module.py(325): __call__\n/home/natu/anaconda3/lib/python3.6/site-packages/torch/nn/modules/container.py(67): forward\n/home/natu/anaconda3/lib/python3.6/site-packages/torch/nn/modules/module.py(325): __call__\n/home/natu/myproj/study_ml/onnx/onnx_read/squiize.py(104): forward\n/home/natu/anaconda3/lib/python3.6/site-packages/torch/nn/modules/module.py(325): __call__\n/home/natu/anaconda3/lib/python3.6/site-packages/torch/jit/__init__.py(236): traced_inner\n/home/natu/anaconda3/lib/python3.6/site-packages/torch/jit/__init__.py(259): wrapper\n/home/natu/anaconda3/lib/python3.6/site-packages/torch/jit/__init__.py(241): forward\n/home/natu/anaconda3/lib/python3.6/site-packages/torch/nn/modules/module.py(325): __call__\n/home/natu/anaconda3/lib/python3.6/site-packages/torch/jit/__init__.py(217): trace\n/home/natu/anaconda3/lib/python3.6/site-packages/torch/onnx/__init__.py(116): _export\n/home/natu/myproj/study_ml/onnx/onnx_read/squiize.py(146): <module>\n/home/natu/app/pycharm-community-2017.3.2/helpers/pydev/_pydev_imps/_pydev_execfile.py(18): execfile\n/home/natu/app/pycharm-community-2017.3.2/helpers/pydev/pydevd.py(1072): run\n/home/natu/app/pycharm-community-2017.3.2/helpers/pydev/pydevd.py(1662): main\n/home/natu/app/pycharm-community-2017.3.2/helpers/pydev/pydevd.py(1668): <module>\n"

52   input: "116"
input: "32"
output: "122"
op_type: "Conv"
attribute {
  name: "kernel_shape"
  ints: 3
  ints: 3
  type: INTS
}
attribute {
  name: "strides"
  ints: 1
  ints: 1
  type: INTS
}
attribute {
  name: "pads"
  ints: 1
  ints: 1
  ints: 1
  ints: 1
  type: INTS
}
attribute {
  name: "dilations"
  ints: 1
  ints: 1
  type: INTS
}
attribute {
  name: "group"
  i: 1
  type: INT
}

53   input: "122"
input: "33"
output: "123"
op_type: "Add"
attribute {
  name: "broadcast"
  i: 1
  type: INT
}
attribute {
  name: "axis"
  i: 1
  type: INT
}

54   input: "123"
output: "124"
op_type: "Relu"
doc_string: "/home/natu/anaconda3/lib/python3.6/site-packages/torch/nn/modules/activation.py(43): forward\n/home/natu/anaconda3/lib/python3.6/site-packages/torch/nn/modules/module.py(325): __call__\n/home/natu/myproj/study_ml/onnx/onnx_read/squiize.py(41): forward\n/home/natu/anaconda3/lib/python3.6/site-packages/torch/nn/modules/module.py(325): __call__\n/home/natu/anaconda3/lib/python3.6/site-packages/torch/nn/modules/container.py(67): forward\n/home/natu/anaconda3/lib/python3.6/site-packages/torch/nn/modules/module.py(325): __call__\n/home/natu/myproj/study_ml/onnx/onnx_read/squiize.py(104): forward\n/home/natu/anaconda3/lib/python3.6/site-packages/torch/nn/modules/module.py(325): __call__\n/home/natu/anaconda3/lib/python3.6/site-packages/torch/jit/__init__.py(236): traced_inner\n/home/natu/anaconda3/lib/python3.6/site-packages/torch/jit/__init__.py(259): wrapper\n/home/natu/anaconda3/lib/python3.6/site-packages/torch/jit/__init__.py(241): forward\n/home/natu/anaconda3/lib/python3.6/site-packages/torch/nn/modules/module.py(325): __call__\n/home/natu/anaconda3/lib/python3.6/site-packages/torch/jit/__init__.py(217): trace\n/home/natu/anaconda3/lib/python3.6/site-packages/torch/onnx/__init__.py(116): _export\n/home/natu/myproj/study_ml/onnx/onnx_read/squiize.py(146): <module>\n/home/natu/app/pycharm-community-2017.3.2/helpers/pydev/_pydev_imps/_pydev_execfile.py(18): execfile\n/home/natu/app/pycharm-community-2017.3.2/helpers/pydev/pydevd.py(1072): run\n/home/natu/app/pycharm-community-2017.3.2/helpers/pydev/pydevd.py(1662): main\n/home/natu/app/pycharm-community-2017.3.2/helpers/pydev/pydevd.py(1668): <module>\n"

55   input: "120"
input: "124"
output: "125"
op_type: "Concat"
attribute {
  name: "axis"
  i: 1
  type: INT
}
doc_string: "/home/natu/myproj/study_ml/onnx/onnx_read/squiize.py(42): forward\n/home/natu/anaconda3/lib/python3.6/site-packages/torch/nn/modules/module.py(325): __call__\n/home/natu/anaconda3/lib/python3.6/site-packages/torch/nn/modules/container.py(67): forward\n/home/natu/anaconda3/lib/python3.6/site-packages/torch/nn/modules/module.py(325): __call__\n/home/natu/myproj/study_ml/onnx/onnx_read/squiize.py(104): forward\n/home/natu/anaconda3/lib/python3.6/site-packages/torch/nn/modules/module.py(325): __call__\n/home/natu/anaconda3/lib/python3.6/site-packages/torch/jit/__init__.py(236): traced_inner\n/home/natu/anaconda3/lib/python3.6/site-packages/torch/jit/__init__.py(259): wrapper\n/home/natu/anaconda3/lib/python3.6/site-packages/torch/jit/__init__.py(241): forward\n/home/natu/anaconda3/lib/python3.6/site-packages/torch/nn/modules/module.py(325): __call__\n/home/natu/anaconda3/lib/python3.6/site-packages/torch/jit/__init__.py(217): trace\n/home/natu/anaconda3/lib/python3.6/site-packages/torch/onnx/__init__.py(116): _export\n/home/natu/myproj/study_ml/onnx/onnx_read/squiize.py(146): <module>\n/home/natu/app/pycharm-community-2017.3.2/helpers/pydev/_pydev_imps/_pydev_execfile.py(18): execfile\n/home/natu/app/pycharm-community-2017.3.2/helpers/pydev/pydevd.py(1072): run\n/home/natu/app/pycharm-community-2017.3.2/helpers/pydev/pydevd.py(1662): main\n/home/natu/app/pycharm-community-2017.3.2/helpers/pydev/pydevd.py(1668): <module>\n"

56   input: "125"
input: "34"
output: "127"
op_type: "Conv"
attribute {
  name: "kernel_shape"
  ints: 1
  ints: 1
  type: INTS
}
attribute {
  name: "strides"
  ints: 1
  ints: 1
  type: INTS
}
attribute {
  name: "pads"
  ints: 0
  ints: 0
  ints: 0
  ints: 0
  type: INTS
}
attribute {
  name: "dilations"
  ints: 1
  ints: 1
  type: INTS
}
attribute {
  name: "group"
  i: 1
  type: INT
}

57   input: "127"
input: "35"
output: "128"
op_type: "Add"
attribute {
  name: "broadcast"
  i: 1
  type: INT
}
attribute {
  name: "axis"
  i: 1
  type: INT
}

58   input: "128"
output: "129"
op_type: "Relu"
doc_string: "/home/natu/anaconda3/lib/python3.6/site-packages/torch/nn/modules/activation.py(43): forward\n/home/natu/anaconda3/lib/python3.6/site-packages/torch/nn/modules/module.py(325): __call__\n/home/natu/myproj/study_ml/onnx/onnx_read/squiize.py(38): forward\n/home/natu/anaconda3/lib/python3.6/site-packages/torch/nn/modules/module.py(325): __call__\n/home/natu/anaconda3/lib/python3.6/site-packages/torch/nn/modules/container.py(67): forward\n/home/natu/anaconda3/lib/python3.6/site-packages/torch/nn/modules/module.py(325): __call__\n/home/natu/myproj/study_ml/onnx/onnx_read/squiize.py(104): forward\n/home/natu/anaconda3/lib/python3.6/site-packages/torch/nn/modules/module.py(325): __call__\n/home/natu/anaconda3/lib/python3.6/site-packages/torch/jit/__init__.py(236): traced_inner\n/home/natu/anaconda3/lib/python3.6/site-packages/torch/jit/__init__.py(259): wrapper\n/home/natu/anaconda3/lib/python3.6/site-packages/torch/jit/__init__.py(241): forward\n/home/natu/anaconda3/lib/python3.6/site-packages/torch/nn/modules/module.py(325): __call__\n/home/natu/anaconda3/lib/python3.6/site-packages/torch/jit/__init__.py(217): trace\n/home/natu/anaconda3/lib/python3.6/site-packages/torch/onnx/__init__.py(116): _export\n/home/natu/myproj/study_ml/onnx/onnx_read/squiize.py(146): <module>\n/home/natu/app/pycharm-community-2017.3.2/helpers/pydev/_pydev_imps/_pydev_execfile.py(18): execfile\n/home/natu/app/pycharm-community-2017.3.2/helpers/pydev/pydevd.py(1072): run\n/home/natu/app/pycharm-community-2017.3.2/helpers/pydev/pydevd.py(1662): main\n/home/natu/app/pycharm-community-2017.3.2/helpers/pydev/pydevd.py(1668): <module>\n"

59   input: "129"
input: "36"
output: "131"
op_type: "Conv"
attribute {
  name: "kernel_shape"
  ints: 1
  ints: 1
  type: INTS
}
attribute {
  name: "strides"
  ints: 1
  ints: 1
  type: INTS
}
attribute {
  name: "pads"
  ints: 0
  ints: 0
  ints: 0
  ints: 0
  type: INTS
}
attribute {
  name: "dilations"
  ints: 1
  ints: 1
  type: INTS
}
attribute {
  name: "group"
  i: 1
  type: INT
}

60   input: "131"
input: "37"
output: "132"
op_type: "Add"
attribute {
  name: "broadcast"
  i: 1
  type: INT
}
attribute {
  name: "axis"
  i: 1
  type: INT
}

61   input: "132"
output: "133"
op_type: "Relu"
doc_string: "/home/natu/anaconda3/lib/python3.6/site-packages/torch/nn/modules/activation.py(43): forward\n/home/natu/anaconda3/lib/python3.6/site-packages/torch/nn/modules/module.py(325): __call__\n/home/natu/myproj/study_ml/onnx/onnx_read/squiize.py(40): forward\n/home/natu/anaconda3/lib/python3.6/site-packages/torch/nn/modules/module.py(325): __call__\n/home/natu/anaconda3/lib/python3.6/site-packages/torch/nn/modules/container.py(67): forward\n/home/natu/anaconda3/lib/python3.6/site-packages/torch/nn/modules/module.py(325): __call__\n/home/natu/myproj/study_ml/onnx/onnx_read/squiize.py(104): forward\n/home/natu/anaconda3/lib/python3.6/site-packages/torch/nn/modules/module.py(325): __call__\n/home/natu/anaconda3/lib/python3.6/site-packages/torch/jit/__init__.py(236): traced_inner\n/home/natu/anaconda3/lib/python3.6/site-packages/torch/jit/__init__.py(259): wrapper\n/home/natu/anaconda3/lib/python3.6/site-packages/torch/jit/__init__.py(241): forward\n/home/natu/anaconda3/lib/python3.6/site-packages/torch/nn/modules/module.py(325): __call__\n/home/natu/anaconda3/lib/python3.6/site-packages/torch/jit/__init__.py(217): trace\n/home/natu/anaconda3/lib/python3.6/site-packages/torch/onnx/__init__.py(116): _export\n/home/natu/myproj/study_ml/onnx/onnx_read/squiize.py(146): <module>\n/home/natu/app/pycharm-community-2017.3.2/helpers/pydev/_pydev_imps/_pydev_execfile.py(18): execfile\n/home/natu/app/pycharm-community-2017.3.2/helpers/pydev/pydevd.py(1072): run\n/home/natu/app/pycharm-community-2017.3.2/helpers/pydev/pydevd.py(1662): main\n/home/natu/app/pycharm-community-2017.3.2/helpers/pydev/pydevd.py(1668): <module>\n"

62   input: "129"
input: "38"
output: "135"
op_type: "Conv"
attribute {
  name: "kernel_shape"
  ints: 3
  ints: 3
  type: INTS
}
attribute {
  name: "strides"
  ints: 1
  ints: 1
  type: INTS
}
attribute {
  name: "pads"
  ints: 1
  ints: 1
  ints: 1
  ints: 1
  type: INTS
}
attribute {
  name: "dilations"
  ints: 1
  ints: 1
  type: INTS
}
attribute {
  name: "group"
  i: 1
  type: INT
}

63   input: "135"
input: "39"
output: "136"
op_type: "Add"
attribute {
  name: "broadcast"
  i: 1
  type: INT
}
attribute {
  name: "axis"
  i: 1
  type: INT
}

64   input: "136"
output: "137"
op_type: "Relu"
doc_string: "/home/natu/anaconda3/lib/python3.6/site-packages/torch/nn/modules/activation.py(43): forward\n/home/natu/anaconda3/lib/python3.6/site-packages/torch/nn/modules/module.py(325): __call__\n/home/natu/myproj/study_ml/onnx/onnx_read/squiize.py(41): forward\n/home/natu/anaconda3/lib/python3.6/site-packages/torch/nn/modules/module.py(325): __call__\n/home/natu/anaconda3/lib/python3.6/site-packages/torch/nn/modules/container.py(67): forward\n/home/natu/anaconda3/lib/python3.6/site-packages/torch/nn/modules/module.py(325): __call__\n/home/natu/myproj/study_ml/onnx/onnx_read/squiize.py(104): forward\n/home/natu/anaconda3/lib/python3.6/site-packages/torch/nn/modules/module.py(325): __call__\n/home/natu/anaconda3/lib/python3.6/site-packages/torch/jit/__init__.py(236): traced_inner\n/home/natu/anaconda3/lib/python3.6/site-packages/torch/jit/__init__.py(259): wrapper\n/home/natu/anaconda3/lib/python3.6/site-packages/torch/jit/__init__.py(241): forward\n/home/natu/anaconda3/lib/python3.6/site-packages/torch/nn/modules/module.py(325): __call__\n/home/natu/anaconda3/lib/python3.6/site-packages/torch/jit/__init__.py(217): trace\n/home/natu/anaconda3/lib/python3.6/site-packages/torch/onnx/__init__.py(116): _export\n/home/natu/myproj/study_ml/onnx/onnx_read/squiize.py(146): <module>\n/home/natu/app/pycharm-community-2017.3.2/helpers/pydev/_pydev_imps/_pydev_execfile.py(18): execfile\n/home/natu/app/pycharm-community-2017.3.2/helpers/pydev/pydevd.py(1072): run\n/home/natu/app/pycharm-community-2017.3.2/helpers/pydev/pydevd.py(1662): main\n/home/natu/app/pycharm-community-2017.3.2/helpers/pydev/pydevd.py(1668): <module>\n"

65   input: "133"
input: "137"
output: "138"
op_type: "Concat"
attribute {
  name: "axis"
  i: 1
  type: INT
}
doc_string: "/home/natu/myproj/study_ml/onnx/onnx_read/squiize.py(42): forward\n/home/natu/anaconda3/lib/python3.6/site-packages/torch/nn/modules/module.py(325): __call__\n/home/natu/anaconda3/lib/python3.6/site-packages/torch/nn/modules/container.py(67): forward\n/home/natu/anaconda3/lib/python3.6/site-packages/torch/nn/modules/module.py(325): __call__\n/home/natu/myproj/study_ml/onnx/onnx_read/squiize.py(104): forward\n/home/natu/anaconda3/lib/python3.6/site-packages/torch/nn/modules/module.py(325): __call__\n/home/natu/anaconda3/lib/python3.6/site-packages/torch/jit/__init__.py(236): traced_inner\n/home/natu/anaconda3/lib/python3.6/site-packages/torch/jit/__init__.py(259): wrapper\n/home/natu/anaconda3/lib/python3.6/site-packages/torch/jit/__init__.py(241): forward\n/home/natu/anaconda3/lib/python3.6/site-packages/torch/nn/modules/module.py(325): __call__\n/home/natu/anaconda3/lib/python3.6/site-packages/torch/jit/__init__.py(217): trace\n/home/natu/anaconda3/lib/python3.6/site-packages/torch/onnx/__init__.py(116): _export\n/home/natu/myproj/study_ml/onnx/onnx_read/squiize.py(146): <module>\n/home/natu/app/pycharm-community-2017.3.2/helpers/pydev/_pydev_imps/_pydev_execfile.py(18): execfile\n/home/natu/app/pycharm-community-2017.3.2/helpers/pydev/pydevd.py(1072): run\n/home/natu/app/pycharm-community-2017.3.2/helpers/pydev/pydevd.py(1662): main\n/home/natu/app/pycharm-community-2017.3.2/helpers/pydev/pydevd.py(1668): <module>\n"

66   input: "138"
input: "40"
output: "140"
op_type: "Conv"
attribute {
  name: "kernel_shape"
  ints: 1
  ints: 1
  type: INTS
}
attribute {
  name: "strides"
  ints: 1
  ints: 1
  type: INTS
}
attribute {
  name: "pads"
  ints: 0
  ints: 0
  ints: 0
  ints: 0
  type: INTS
}
attribute {
  name: "dilations"
  ints: 1
  ints: 1
  type: INTS
}
attribute {
  name: "group"
  i: 1
  type: INT
}

67   input: "140"
input: "41"
output: "141"
op_type: "Add"
attribute {
  name: "broadcast"
  i: 1
  type: INT
}
attribute {
  name: "axis"
  i: 1
  type: INT
}

68   input: "141"
output: "142"
op_type: "Relu"
doc_string: "/home/natu/anaconda3/lib/python3.6/site-packages/torch/nn/modules/activation.py(43): forward\n/home/natu/anaconda3/lib/python3.6/site-packages/torch/nn/modules/module.py(325): __call__\n/home/natu/myproj/study_ml/onnx/onnx_read/squiize.py(38): forward\n/home/natu/anaconda3/lib/python3.6/site-packages/torch/nn/modules/module.py(325): __call__\n/home/natu/anaconda3/lib/python3.6/site-packages/torch/nn/modules/container.py(67): forward\n/home/natu/anaconda3/lib/python3.6/site-packages/torch/nn/modules/module.py(325): __call__\n/home/natu/myproj/study_ml/onnx/onnx_read/squiize.py(104): forward\n/home/natu/anaconda3/lib/python3.6/site-packages/torch/nn/modules/module.py(325): __call__\n/home/natu/anaconda3/lib/python3.6/site-packages/torch/jit/__init__.py(236): traced_inner\n/home/natu/anaconda3/lib/python3.6/site-packages/torch/jit/__init__.py(259): wrapper\n/home/natu/anaconda3/lib/python3.6/site-packages/torch/jit/__init__.py(241): forward\n/home/natu/anaconda3/lib/python3.6/site-packages/torch/nn/modules/module.py(325): __call__\n/home/natu/anaconda3/lib/python3.6/site-packages/torch/jit/__init__.py(217): trace\n/home/natu/anaconda3/lib/python3.6/site-packages/torch/onnx/__init__.py(116): _export\n/home/natu/myproj/study_ml/onnx/onnx_read/squiize.py(146): <module>\n/home/natu/app/pycharm-community-2017.3.2/helpers/pydev/_pydev_imps/_pydev_execfile.py(18): execfile\n/home/natu/app/pycharm-community-2017.3.2/helpers/pydev/pydevd.py(1072): run\n/home/natu/app/pycharm-community-2017.3.2/helpers/pydev/pydevd.py(1662): main\n/home/natu/app/pycharm-community-2017.3.2/helpers/pydev/pydevd.py(1668): <module>\n"

69   input: "142"
input: "42"
output: "144"
op_type: "Conv"
attribute {
  name: "kernel_shape"
  ints: 1
  ints: 1
  type: INTS
}
attribute {
  name: "strides"
  ints: 1
  ints: 1
  type: INTS
}
attribute {
  name: "pads"
  ints: 0
  ints: 0
  ints: 0
  ints: 0
  type: INTS
}
attribute {
  name: "dilations"
  ints: 1
  ints: 1
  type: INTS
}
attribute {
  name: "group"
  i: 1
  type: INT
}

70   input: "144"
input: "43"
output: "145"
op_type: "Add"
attribute {
  name: "broadcast"
  i: 1
  type: INT
}
attribute {
  name: "axis"
  i: 1
  type: INT
}

71   input: "145"
output: "146"
op_type: "Relu"
doc_string: "/home/natu/anaconda3/lib/python3.6/site-packages/torch/nn/modules/activation.py(43): forward\n/home/natu/anaconda3/lib/python3.6/site-packages/torch/nn/modules/module.py(325): __call__\n/home/natu/myproj/study_ml/onnx/onnx_read/squiize.py(40): forward\n/home/natu/anaconda3/lib/python3.6/site-packages/torch/nn/modules/module.py(325): __call__\n/home/natu/anaconda3/lib/python3.6/site-packages/torch/nn/modules/container.py(67): forward\n/home/natu/anaconda3/lib/python3.6/site-packages/torch/nn/modules/module.py(325): __call__\n/home/natu/myproj/study_ml/onnx/onnx_read/squiize.py(104): forward\n/home/natu/anaconda3/lib/python3.6/site-packages/torch/nn/modules/module.py(325): __call__\n/home/natu/anaconda3/lib/python3.6/site-packages/torch/jit/__init__.py(236): traced_inner\n/home/natu/anaconda3/lib/python3.6/site-packages/torch/jit/__init__.py(259): wrapper\n/home/natu/anaconda3/lib/python3.6/site-packages/torch/jit/__init__.py(241): forward\n/home/natu/anaconda3/lib/python3.6/site-packages/torch/nn/modules/module.py(325): __call__\n/home/natu/anaconda3/lib/python3.6/site-packages/torch/jit/__init__.py(217): trace\n/home/natu/anaconda3/lib/python3.6/site-packages/torch/onnx/__init__.py(116): _export\n/home/natu/myproj/study_ml/onnx/onnx_read/squiize.py(146): <module>\n/home/natu/app/pycharm-community-2017.3.2/helpers/pydev/_pydev_imps/_pydev_execfile.py(18): execfile\n/home/natu/app/pycharm-community-2017.3.2/helpers/pydev/pydevd.py(1072): run\n/home/natu/app/pycharm-community-2017.3.2/helpers/pydev/pydevd.py(1662): main\n/home/natu/app/pycharm-community-2017.3.2/helpers/pydev/pydevd.py(1668): <module>\n"

72   input: "142"
input: "44"
output: "148"
op_type: "Conv"
attribute {
  name: "kernel_shape"
  ints: 3
  ints: 3
  type: INTS
}
attribute {
  name: "strides"
  ints: 1
  ints: 1
  type: INTS
}
attribute {
  name: "pads"
  ints: 1
  ints: 1
  ints: 1
  ints: 1
  type: INTS
}
attribute {
  name: "dilations"
  ints: 1
  ints: 1
  type: INTS
}
attribute {
  name: "group"
  i: 1
  type: INT
}

73   input: "148"
input: "45"
output: "149"
op_type: "Add"
attribute {
  name: "broadcast"
  i: 1
  type: INT
}
attribute {
  name: "axis"
  i: 1
  type: INT
}

74   input: "149"
output: "150"
op_type: "Relu"
doc_string: "/home/natu/anaconda3/lib/python3.6/site-packages/torch/nn/modules/activation.py(43): forward\n/home/natu/anaconda3/lib/python3.6/site-packages/torch/nn/modules/module.py(325): __call__\n/home/natu/myproj/study_ml/onnx/onnx_read/squiize.py(41): forward\n/home/natu/anaconda3/lib/python3.6/site-packages/torch/nn/modules/module.py(325): __call__\n/home/natu/anaconda3/lib/python3.6/site-packages/torch/nn/modules/container.py(67): forward\n/home/natu/anaconda3/lib/python3.6/site-packages/torch/nn/modules/module.py(325): __call__\n/home/natu/myproj/study_ml/onnx/onnx_read/squiize.py(104): forward\n/home/natu/anaconda3/lib/python3.6/site-packages/torch/nn/modules/module.py(325): __call__\n/home/natu/anaconda3/lib/python3.6/site-packages/torch/jit/__init__.py(236): traced_inner\n/home/natu/anaconda3/lib/python3.6/site-packages/torch/jit/__init__.py(259): wrapper\n/home/natu/anaconda3/lib/python3.6/site-packages/torch/jit/__init__.py(241): forward\n/home/natu/anaconda3/lib/python3.6/site-packages/torch/nn/modules/module.py(325): __call__\n/home/natu/anaconda3/lib/python3.6/site-packages/torch/jit/__init__.py(217): trace\n/home/natu/anaconda3/lib/python3.6/site-packages/torch/onnx/__init__.py(116): _export\n/home/natu/myproj/study_ml/onnx/onnx_read/squiize.py(146): <module>\n/home/natu/app/pycharm-community-2017.3.2/helpers/pydev/_pydev_imps/_pydev_execfile.py(18): execfile\n/home/natu/app/pycharm-community-2017.3.2/helpers/pydev/pydevd.py(1072): run\n/home/natu/app/pycharm-community-2017.3.2/helpers/pydev/pydevd.py(1662): main\n/home/natu/app/pycharm-community-2017.3.2/helpers/pydev/pydevd.py(1668): <module>\n"

75   input: "146"
input: "150"
output: "151"
op_type: "Concat"
attribute {
  name: "axis"
  i: 1
  type: INT
}
doc_string: "/home/natu/myproj/study_ml/onnx/onnx_read/squiize.py(42): forward\n/home/natu/anaconda3/lib/python3.6/site-packages/torch/nn/modules/module.py(325): __call__\n/home/natu/anaconda3/lib/python3.6/site-packages/torch/nn/modules/container.py(67): forward\n/home/natu/anaconda3/lib/python3.6/site-packages/torch/nn/modules/module.py(325): __call__\n/home/natu/myproj/study_ml/onnx/onnx_read/squiize.py(104): forward\n/home/natu/anaconda3/lib/python3.6/site-packages/torch/nn/modules/module.py(325): __call__\n/home/natu/anaconda3/lib/python3.6/site-packages/torch/jit/__init__.py(236): traced_inner\n/home/natu/anaconda3/lib/python3.6/site-packages/torch/jit/__init__.py(259): wrapper\n/home/natu/anaconda3/lib/python3.6/site-packages/torch/jit/__init__.py(241): forward\n/home/natu/anaconda3/lib/python3.6/site-packages/torch/nn/modules/module.py(325): __call__\n/home/natu/anaconda3/lib/python3.6/site-packages/torch/jit/__init__.py(217): trace\n/home/natu/anaconda3/lib/python3.6/site-packages/torch/onnx/__init__.py(116): _export\n/home/natu/myproj/study_ml/onnx/onnx_read/squiize.py(146): <module>\n/home/natu/app/pycharm-community-2017.3.2/helpers/pydev/_pydev_imps/_pydev_execfile.py(18): execfile\n/home/natu/app/pycharm-community-2017.3.2/helpers/pydev/pydevd.py(1072): run\n/home/natu/app/pycharm-community-2017.3.2/helpers/pydev/pydevd.py(1662): main\n/home/natu/app/pycharm-community-2017.3.2/helpers/pydev/pydevd.py(1668): <module>\n"

76   input: "151"
input: "46"
output: "153"
op_type: "Conv"
attribute {
  name: "kernel_shape"
  ints: 1
  ints: 1
  type: INTS
}
attribute {
  name: "strides"
  ints: 1
  ints: 1
  type: INTS
}
attribute {
  name: "pads"
  ints: 0
  ints: 0
  ints: 0
  ints: 0
  type: INTS
}
attribute {
  name: "dilations"
  ints: 1
  ints: 1
  type: INTS
}
attribute {
  name: "group"
  i: 1
  type: INT
}

77   input: "153"
input: "47"
output: "154"
op_type: "Add"
attribute {
  name: "broadcast"
  i: 1
  type: INT
}
attribute {
  name: "axis"
  i: 1
  type: INT
}

78   input: "154"
output: "155"
op_type: "Relu"
doc_string: "/home/natu/anaconda3/lib/python3.6/site-packages/torch/nn/modules/activation.py(43): forward\n/home/natu/anaconda3/lib/python3.6/site-packages/torch/nn/modules/module.py(325): __call__\n/home/natu/myproj/study_ml/onnx/onnx_read/squiize.py(38): forward\n/home/natu/anaconda3/lib/python3.6/site-packages/torch/nn/modules/module.py(325): __call__\n/home/natu/anaconda3/lib/python3.6/site-packages/torch/nn/modules/container.py(67): forward\n/home/natu/anaconda3/lib/python3.6/site-packages/torch/nn/modules/module.py(325): __call__\n/home/natu/myproj/study_ml/onnx/onnx_read/squiize.py(104): forward\n/home/natu/anaconda3/lib/python3.6/site-packages/torch/nn/modules/module.py(325): __call__\n/home/natu/anaconda3/lib/python3.6/site-packages/torch/jit/__init__.py(236): traced_inner\n/home/natu/anaconda3/lib/python3.6/site-packages/torch/jit/__init__.py(259): wrapper\n/home/natu/anaconda3/lib/python3.6/site-packages/torch/jit/__init__.py(241): forward\n/home/natu/anaconda3/lib/python3.6/site-packages/torch/nn/modules/module.py(325): __call__\n/home/natu/anaconda3/lib/python3.6/site-packages/torch/jit/__init__.py(217): trace\n/home/natu/anaconda3/lib/python3.6/site-packages/torch/onnx/__init__.py(116): _export\n/home/natu/myproj/study_ml/onnx/onnx_read/squiize.py(146): <module>\n/home/natu/app/pycharm-community-2017.3.2/helpers/pydev/_pydev_imps/_pydev_execfile.py(18): execfile\n/home/natu/app/pycharm-community-2017.3.2/helpers/pydev/pydevd.py(1072): run\n/home/natu/app/pycharm-community-2017.3.2/helpers/pydev/pydevd.py(1662): main\n/home/natu/app/pycharm-community-2017.3.2/helpers/pydev/pydevd.py(1668): <module>\n"

79   input: "155"
input: "48"
output: "157"
op_type: "Conv"
attribute {
  name: "kernel_shape"
  ints: 1
  ints: 1
  type: INTS
}
attribute {
  name: "strides"
  ints: 1
  ints: 1
  type: INTS
}
attribute {
  name: "pads"
  ints: 0
  ints: 0
  ints: 0
  ints: 0
  type: INTS
}
attribute {
  name: "dilations"
  ints: 1
  ints: 1
  type: INTS
}
attribute {
  name: "group"
  i: 1
  type: INT
}

80   input: "157"
input: "49"
output: "158"
op_type: "Add"
attribute {
  name: "broadcast"
  i: 1
  type: INT
}
attribute {
  name: "axis"
  i: 1
  type: INT
}

81   input: "158"
output: "159"
op_type: "Relu"
doc_string: "/home/natu/anaconda3/lib/python3.6/site-packages/torch/nn/modules/activation.py(43): forward\n/home/natu/anaconda3/lib/python3.6/site-packages/torch/nn/modules/module.py(325): __call__\n/home/natu/myproj/study_ml/onnx/onnx_read/squiize.py(40): forward\n/home/natu/anaconda3/lib/python3.6/site-packages/torch/nn/modules/module.py(325): __call__\n/home/natu/anaconda3/lib/python3.6/site-packages/torch/nn/modules/container.py(67): forward\n/home/natu/anaconda3/lib/python3.6/site-packages/torch/nn/modules/module.py(325): __call__\n/home/natu/myproj/study_ml/onnx/onnx_read/squiize.py(104): forward\n/home/natu/anaconda3/lib/python3.6/site-packages/torch/nn/modules/module.py(325): __call__\n/home/natu/anaconda3/lib/python3.6/site-packages/torch/jit/__init__.py(236): traced_inner\n/home/natu/anaconda3/lib/python3.6/site-packages/torch/jit/__init__.py(259): wrapper\n/home/natu/anaconda3/lib/python3.6/site-packages/torch/jit/__init__.py(241): forward\n/home/natu/anaconda3/lib/python3.6/site-packages/torch/nn/modules/module.py(325): __call__\n/home/natu/anaconda3/lib/python3.6/site-packages/torch/jit/__init__.py(217): trace\n/home/natu/anaconda3/lib/python3.6/site-packages/torch/onnx/__init__.py(116): _export\n/home/natu/myproj/study_ml/onnx/onnx_read/squiize.py(146): <module>\n/home/natu/app/pycharm-community-2017.3.2/helpers/pydev/_pydev_imps/_pydev_execfile.py(18): execfile\n/home/natu/app/pycharm-community-2017.3.2/helpers/pydev/pydevd.py(1072): run\n/home/natu/app/pycharm-community-2017.3.2/helpers/pydev/pydevd.py(1662): main\n/home/natu/app/pycharm-community-2017.3.2/helpers/pydev/pydevd.py(1668): <module>\n"

82   input: "155"
input: "50"
output: "161"
op_type: "Conv"
attribute {
  name: "kernel_shape"
  ints: 3
  ints: 3
  type: INTS
}
attribute {
  name: "strides"
  ints: 1
  ints: 1
  type: INTS
}
attribute {
  name: "pads"
  ints: 1
  ints: 1
  ints: 1
  ints: 1
  type: INTS
}
attribute {
  name: "dilations"
  ints: 1
  ints: 1
  type: INTS
}
attribute {
  name: "group"
  i: 1
  type: INT
}

83   input: "161"
input: "51"
output: "162"
op_type: "Add"
attribute {
  name: "broadcast"
  i: 1
  type: INT
}
attribute {
  name: "axis"
  i: 1
  type: INT
}

84   input: "162"
output: "163"
op_type: "Relu"
doc_string: "/home/natu/anaconda3/lib/python3.6/site-packages/torch/nn/modules/activation.py(43): forward\n/home/natu/anaconda3/lib/python3.6/site-packages/torch/nn/modules/module.py(325): __call__\n/home/natu/myproj/study_ml/onnx/onnx_read/squiize.py(41): forward\n/home/natu/anaconda3/lib/python3.6/site-packages/torch/nn/modules/module.py(325): __call__\n/home/natu/anaconda3/lib/python3.6/site-packages/torch/nn/modules/container.py(67): forward\n/home/natu/anaconda3/lib/python3.6/site-packages/torch/nn/modules/module.py(325): __call__\n/home/natu/myproj/study_ml/onnx/onnx_read/squiize.py(104): forward\n/home/natu/anaconda3/lib/python3.6/site-packages/torch/nn/modules/module.py(325): __call__\n/home/natu/anaconda3/lib/python3.6/site-packages/torch/jit/__init__.py(236): traced_inner\n/home/natu/anaconda3/lib/python3.6/site-packages/torch/jit/__init__.py(259): wrapper\n/home/natu/anaconda3/lib/python3.6/site-packages/torch/jit/__init__.py(241): forward\n/home/natu/anaconda3/lib/python3.6/site-packages/torch/nn/modules/module.py(325): __call__\n/home/natu/anaconda3/lib/python3.6/site-packages/torch/jit/__init__.py(217): trace\n/home/natu/anaconda3/lib/python3.6/site-packages/torch/onnx/__init__.py(116): _export\n/home/natu/myproj/study_ml/onnx/onnx_read/squiize.py(146): <module>\n/home/natu/app/pycharm-community-2017.3.2/helpers/pydev/_pydev_imps/_pydev_execfile.py(18): execfile\n/home/natu/app/pycharm-community-2017.3.2/helpers/pydev/pydevd.py(1072): run\n/home/natu/app/pycharm-community-2017.3.2/helpers/pydev/pydevd.py(1662): main\n/home/natu/app/pycharm-community-2017.3.2/helpers/pydev/pydevd.py(1668): <module>\n"

85   input: "159"
input: "163"
output: "164"
op_type: "Concat"
attribute {
  name: "axis"
  i: 1
  type: INT
}
doc_string: "/home/natu/myproj/study_ml/onnx/onnx_read/squiize.py(42): forward\n/home/natu/anaconda3/lib/python3.6/site-packages/torch/nn/modules/module.py(325): __call__\n/home/natu/anaconda3/lib/python3.6/site-packages/torch/nn/modules/container.py(67): forward\n/home/natu/anaconda3/lib/python3.6/site-packages/torch/nn/modules/module.py(325): __call__\n/home/natu/myproj/study_ml/onnx/onnx_read/squiize.py(104): forward\n/home/natu/anaconda3/lib/python3.6/site-packages/torch/nn/modules/module.py(325): __call__\n/home/natu/anaconda3/lib/python3.6/site-packages/torch/jit/__init__.py(236): traced_inner\n/home/natu/anaconda3/lib/python3.6/site-packages/torch/jit/__init__.py(259): wrapper\n/home/natu/anaconda3/lib/python3.6/site-packages/torch/jit/__init__.py(241): forward\n/home/natu/anaconda3/lib/python3.6/site-packages/torch/nn/modules/module.py(325): __call__\n/home/natu/anaconda3/lib/python3.6/site-packages/torch/jit/__init__.py(217): trace\n/home/natu/anaconda3/lib/python3.6/site-packages/torch/onnx/__init__.py(116): _export\n/home/natu/myproj/study_ml/onnx/onnx_read/squiize.py(146): <module>\n/home/natu/app/pycharm-community-2017.3.2/helpers/pydev/_pydev_imps/_pydev_execfile.py(18): execfile\n/home/natu/app/pycharm-community-2017.3.2/helpers/pydev/pydevd.py(1072): run\n/home/natu/app/pycharm-community-2017.3.2/helpers/pydev/pydevd.py(1662): main\n/home/natu/app/pycharm-community-2017.3.2/helpers/pydev/pydevd.py(1668): <module>\n"

86   input: "164"
output: "166"
output: "167"
op_type: "Dropout"
attribute {
  name: "is_test"
  i: 1
  type: INT
}
attribute {
  name: "ratio"
  f: 0.5
  type: FLOAT
}

87   input: "166"
input: "52"
output: "169"
op_type: "Conv"
attribute {
  name: "kernel_shape"
  ints: 1
  ints: 1
  type: INTS
}
attribute {
  name: "strides"
  ints: 1
  ints: 1
  type: INTS
}
attribute {
  name: "pads"
  ints: 0
  ints: 0
  ints: 0
  ints: 0
  type: INTS
}
attribute {
  name: "dilations"
  ints: 1
  ints: 1
  type: INTS
}
attribute {
  name: "group"
  i: 1
  type: INT
}

88   input: "169"
input: "53"
output: "170"
op_type: "Add"
attribute {
  name: "broadcast"
  i: 1
  type: INT
}
attribute {
  name: "axis"
  i: 1
  type: INT
}

89   input: "170"
output: "171"
op_type: "Relu"
doc_string: "/home/natu/anaconda3/lib/python3.6/site-packages/torch/nn/modules/activation.py(43): forward\n/home/natu/anaconda3/lib/python3.6/site-packages/torch/nn/modules/module.py(325): __call__\n/home/natu/anaconda3/lib/python3.6/site-packages/torch/nn/modules/container.py(67): forward\n/home/natu/anaconda3/lib/python3.6/site-packages/torch/nn/modules/module.py(325): __call__\n/home/natu/myproj/study_ml/onnx/onnx_read/squiize.py(105): forward\n/home/natu/anaconda3/lib/python3.6/site-packages/torch/nn/modules/module.py(325): __call__\n/home/natu/anaconda3/lib/python3.6/site-packages/torch/jit/__init__.py(236): traced_inner\n/home/natu/anaconda3/lib/python3.6/site-packages/torch/jit/__init__.py(259): wrapper\n/home/natu/anaconda3/lib/python3.6/site-packages/torch/jit/__init__.py(241): forward\n/home/natu/anaconda3/lib/python3.6/site-packages/torch/nn/modules/module.py(325): __call__\n/home/natu/anaconda3/lib/python3.6/site-packages/torch/jit/__init__.py(217): trace\n/home/natu/anaconda3/lib/python3.6/site-packages/torch/onnx/__init__.py(116): _export\n/home/natu/myproj/study_ml/onnx/onnx_read/squiize.py(146): <module>\n/home/natu/app/pycharm-community-2017.3.2/helpers/pydev/_pydev_imps/_pydev_execfile.py(18): execfile\n/home/natu/app/pycharm-community-2017.3.2/helpers/pydev/pydevd.py(1072): run\n/home/natu/app/pycharm-community-2017.3.2/helpers/pydev/pydevd.py(1662): main\n/home/natu/app/pycharm-community-2017.3.2/helpers/pydev/pydevd.py(1668): <module>\n"

90   input: "171"
output: "172"
op_type: "AveragePool"
attribute {
  name: "kernel_shape"
  ints: 13
  ints: 13
  type: INTS
}
attribute {
  name: "pads"
  ints: 0
  ints: 0
  type: INTS
}
attribute {
  name: "strides"
  ints: 13
  ints: 13
  type: INTS
}
doc_string: "/home/natu/anaconda3/lib/python3.6/site-packages/torch/nn/modules/pooling.py(505): forward\n/home/natu/anaconda3/lib/python3.6/site-packages/torch/nn/modules/module.py(325): __call__\n/home/natu/anaconda3/lib/python3.6/site-packages/torch/nn/modules/container.py(67): forward\n/home/natu/anaconda3/lib/python3.6/site-packages/torch/nn/modules/module.py(325): __call__\n/home/natu/myproj/study_ml/onnx/onnx_read/squiize.py(105): forward\n/home/natu/anaconda3/lib/python3.6/site-packages/torch/nn/modules/module.py(325): __call__\n/home/natu/anaconda3/lib/python3.6/site-packages/torch/jit/__init__.py(236): traced_inner\n/home/natu/anaconda3/lib/python3.6/site-packages/torch/jit/__init__.py(259): wrapper\n/home/natu/anaconda3/lib/python3.6/site-packages/torch/jit/__init__.py(241): forward\n/home/natu/anaconda3/lib/python3.6/site-packages/torch/nn/modules/module.py(325): __call__\n/home/natu/anaconda3/lib/python3.6/site-packages/torch/jit/__init__.py(217): trace\n/home/natu/anaconda3/lib/python3.6/site-packages/torch/onnx/__init__.py(116): _export\n/home/natu/myproj/study_ml/onnx/onnx_read/squiize.py(146): <module>\n/home/natu/app/pycharm-community-2017.3.2/helpers/pydev/_pydev_imps/_pydev_execfile.py(18): execfile\n/home/natu/app/pycharm-community-2017.3.2/helpers/pydev/pydevd.py(1072): run\n/home/natu/app/pycharm-community-2017.3.2/helpers/pydev/pydevd.py(1662): main\n/home/natu/app/pycharm-community-2017.3.2/helpers/pydev/pydevd.py(1668): <module>\n"

91   input: "172"
output: "173"
op_type: "Reshape"
attribute {
  name: "shape"
  ints: 1
  ints: 1000
  type: INTS
}
doc_string: "/home/natu/myproj/study_ml/onnx/onnx_read/squiize.py(106): forward\n/home/natu/anaconda3/lib/python3.6/site-packages/torch/nn/modules/module.py(325): __call__\n/home/natu/anaconda3/lib/python3.6/site-packages/torch/jit/__init__.py(236): traced_inner\n/home/natu/anaconda3/lib/python3.6/site-packages/torch/jit/__init__.py(259): wrapper\n/home/natu/anaconda3/lib/python3.6/site-packages/torch/jit/__init__.py(241): forward\n/home/natu/anaconda3/lib/python3.6/site-packages/torch/nn/modules/module.py(325): __call__\n/home/natu/anaconda3/lib/python3.6/site-packages/torch/jit/__init__.py(217): trace\n/home/natu/anaconda3/lib/python3.6/site-packages/torch/onnx/__init__.py(116): _export\n/home/natu/myproj/study_ml/onnx/onnx_read/squiize.py(146): <module>\n/home/natu/app/pycharm-community-2017.3.2/helpers/pydev/_pydev_imps/_pydev_execfile.py(18): execfile\n/home/natu/app/pycharm-community-2017.3.2/helpers/pydev/pydevd.py(1072): run\n/home/natu/app/pycharm-community-2017.3.2/helpers/pydev/pydevd.py(1662): main\n/home/natu/app/pycharm-community-2017.3.2/helpers/pydev/pydevd.py(1668): <module>\n"

name: "1"
type {
  tensor_type {
    elem_type: FLOAT
    shape {
      dim {
        dim_value: 1
      }
      dim {
        dim_value: 3
      }
      dim {
        dim_value: 224
      }
      dim {
        dim_value: 224
      }
    }
  }
}

name: "2"
type {
  tensor_type {
    elem_type: FLOAT
    shape {
      dim {
        dim_value: 64
      }
      dim {
        dim_value: 3
      }
      dim {
        dim_value: 3
      }
      dim {
        dim_value: 3
      }
    }
  }
}

name: "3"
type {
  tensor_type {
    elem_type: FLOAT
    shape {
      dim {
        dim_value: 64
      }
    }
  }
}

name: "4"
type {
  tensor_type {
    elem_type: FLOAT
    shape {
      dim {
        dim_value: 16
      }
      dim {
        dim_value: 64
      }
      dim {
        dim_value: 1
      }
      dim {
        dim_value: 1
      }
    }
  }
}

name: "5"
type {
  tensor_type {
    elem_type: FLOAT
    shape {
      dim {
        dim_value: 16
      }
    }
  }
}

name: "6"
type {
  tensor_type {
    elem_type: FLOAT
    shape {
      dim {
        dim_value: 64
      }
      dim {
        dim_value: 16
      }
      dim {
        dim_value: 1
      }
      dim {
        dim_value: 1
      }
    }
  }
}

name: "7"
type {
  tensor_type {
    elem_type: FLOAT
    shape {
      dim {
        dim_value: 64
      }
    }
  }
}

name: "8"
type {
  tensor_type {
    elem_type: FLOAT
    shape {
      dim {
        dim_value: 64
      }
      dim {
        dim_value: 16
      }
      dim {
        dim_value: 3
      }
      dim {
        dim_value: 3
      }
    }
  }
}

name: "9"
type {
  tensor_type {
    elem_type: FLOAT
    shape {
      dim {
        dim_value: 64
      }
    }
  }
}

name: "10"
type {
  tensor_type {
    elem_type: FLOAT
    shape {
      dim {
        dim_value: 16
      }
      dim {
        dim_value: 128
      }
      dim {
        dim_value: 1
      }
      dim {
        dim_value: 1
      }
    }
  }
}

name: "11"
type {
  tensor_type {
    elem_type: FLOAT
    shape {
      dim {
        dim_value: 16
      }
    }
  }
}

name: "12"
type {
  tensor_type {
    elem_type: FLOAT
    shape {
      dim {
        dim_value: 64
      }
      dim {
        dim_value: 16
      }
      dim {
        dim_value: 1
      }
      dim {
        dim_value: 1
      }
    }
  }
}

name: "13"
type {
  tensor_type {
    elem_type: FLOAT
    shape {
      dim {
        dim_value: 64
      }
    }
  }
}

name: "14"
type {
  tensor_type {
    elem_type: FLOAT
    shape {
      dim {
        dim_value: 64
      }
      dim {
        dim_value: 16
      }
      dim {
        dim_value: 3
      }
      dim {
        dim_value: 3
      }
    }
  }
}

name: "15"
type {
  tensor_type {
    elem_type: FLOAT
    shape {
      dim {
        dim_value: 64
      }
    }
  }
}

name: "16"
type {
  tensor_type {
    elem_type: FLOAT
    shape {
      dim {
        dim_value: 32
      }
      dim {
        dim_value: 128
      }
      dim {
        dim_value: 1
      }
      dim {
        dim_value: 1
      }
    }
  }
}

name: "17"
type {
  tensor_type {
    elem_type: FLOAT
    shape {
      dim {
        dim_value: 32
      }
    }
  }
}

name: "18"
type {
  tensor_type {
    elem_type: FLOAT
    shape {
      dim {
        dim_value: 128
      }
      dim {
        dim_value: 32
      }
      dim {
        dim_value: 1
      }
      dim {
        dim_value: 1
      }
    }
  }
}

name: "19"
type {
  tensor_type {
    elem_type: FLOAT
    shape {
      dim {
        dim_value: 128
      }
    }
  }
}

name: "20"
type {
  tensor_type {
    elem_type: FLOAT
    shape {
      dim {
        dim_value: 128
      }
      dim {
        dim_value: 32
      }
      dim {
        dim_value: 3
      }
      dim {
        dim_value: 3
      }
    }
  }
}

name: "21"
type {
  tensor_type {
    elem_type: FLOAT
    shape {
      dim {
        dim_value: 128
      }
    }
  }
}

name: "22"
type {
  tensor_type {
    elem_type: FLOAT
    shape {
      dim {
        dim_value: 32
      }
      dim {
        dim_value: 256
      }
      dim {
        dim_value: 1
      }
      dim {
        dim_value: 1
      }
    }
  }
}

name: "23"
type {
  tensor_type {
    elem_type: FLOAT
    shape {
      dim {
        dim_value: 32
      }
    }
  }
}

name: "24"
type {
  tensor_type {
    elem_type: FLOAT
    shape {
      dim {
        dim_value: 128
      }
      dim {
        dim_value: 32
      }
      dim {
        dim_value: 1
      }
      dim {
        dim_value: 1
      }
    }
  }
}

name: "25"
type {
  tensor_type {
    elem_type: FLOAT
    shape {
      dim {
        dim_value: 128
      }
    }
  }
}

name: "26"
type {
  tensor_type {
    elem_type: FLOAT
    shape {
      dim {
        dim_value: 128
      }
      dim {
        dim_value: 32
      }
      dim {
        dim_value: 3
      }
      dim {
        dim_value: 3
      }
    }
  }
}

name: "27"
type {
  tensor_type {
    elem_type: FLOAT
    shape {
      dim {
        dim_value: 128
      }
    }
  }
}

name: "28"
type {
  tensor_type {
    elem_type: FLOAT
    shape {
      dim {
        dim_value: 48
      }
      dim {
        dim_value: 256
      }
      dim {
        dim_value: 1
      }
      dim {
        dim_value: 1
      }
    }
  }
}

name: "29"
type {
  tensor_type {
    elem_type: FLOAT
    shape {
      dim {
        dim_value: 48
      }
    }
  }
}

name: "30"
type {
  tensor_type {
    elem_type: FLOAT
    shape {
      dim {
        dim_value: 192
      }
      dim {
        dim_value: 48
      }
      dim {
        dim_value: 1
      }
      dim {
        dim_value: 1
      }
    }
  }
}

name: "31"
type {
  tensor_type {
    elem_type: FLOAT
    shape {
      dim {
        dim_value: 192
      }
    }
  }
}

name: "32"
type {
  tensor_type {
    elem_type: FLOAT
    shape {
      dim {
        dim_value: 192
      }
      dim {
        dim_value: 48
      }
      dim {
        dim_value: 3
      }
      dim {
        dim_value: 3
      }
    }
  }
}

name: "33"
type {
  tensor_type {
    elem_type: FLOAT
    shape {
      dim {
        dim_value: 192
      }
    }
  }
}

name: "34"
type {
  tensor_type {
    elem_type: FLOAT
    shape {
      dim {
        dim_value: 48
      }
      dim {
        dim_value: 384
      }
      dim {
        dim_value: 1
      }
      dim {
        dim_value: 1
      }
    }
  }
}

name: "35"
type {
  tensor_type {
    elem_type: FLOAT
    shape {
      dim {
        dim_value: 48
      }
    }
  }
}

name: "36"
type {
  tensor_type {
    elem_type: FLOAT
    shape {
      dim {
        dim_value: 192
      }
      dim {
        dim_value: 48
      }
      dim {
        dim_value: 1
      }
      dim {
        dim_value: 1
      }
    }
  }
}

name: "37"
type {
  tensor_type {
    elem_type: FLOAT
    shape {
      dim {
        dim_value: 192
      }
    }
  }
}

name: "38"
type {
  tensor_type {
    elem_type: FLOAT
    shape {
      dim {
        dim_value: 192
      }
      dim {
        dim_value: 48
      }
      dim {
        dim_value: 3
      }
      dim {
        dim_value: 3
      }
    }
  }
}

name: "39"
type {
  tensor_type {
    elem_type: FLOAT
    shape {
      dim {
        dim_value: 192
      }
    }
  }
}

name: "40"
type {
  tensor_type {
    elem_type: FLOAT
    shape {
      dim {
        dim_value: 64
      }
      dim {
        dim_value: 384
      }
      dim {
        dim_value: 1
      }
      dim {
        dim_value: 1
      }
    }
  }
}

name: "41"
type {
  tensor_type {
    elem_type: FLOAT
    shape {
      dim {
        dim_value: 64
      }
    }
  }
}

name: "42"
type {
  tensor_type {
    elem_type: FLOAT
    shape {
      dim {
        dim_value: 256
      }
      dim {
        dim_value: 64
      }
      dim {
        dim_value: 1
      }
      dim {
        dim_value: 1
      }
    }
  }
}

name: "43"
type {
  tensor_type {
    elem_type: FLOAT
    shape {
      dim {
        dim_value: 256
      }
    }
  }
}

name: "44"
type {
  tensor_type {
    elem_type: FLOAT
    shape {
      dim {
        dim_value: 256
      }
      dim {
        dim_value: 64
      }
      dim {
        dim_value: 3
      }
      dim {
        dim_value: 3
      }
    }
  }
}

name: "45"
type {
  tensor_type {
    elem_type: FLOAT
    shape {
      dim {
        dim_value: 256
      }
    }
  }
}

name: "46"
type {
  tensor_type {
    elem_type: FLOAT
    shape {
      dim {
        dim_value: 64
      }
      dim {
        dim_value: 512
      }
      dim {
        dim_value: 1
      }
      dim {
        dim_value: 1
      }
    }
  }
}

name: "47"
type {
  tensor_type {
    elem_type: FLOAT
    shape {
      dim {
        dim_value: 64
      }
    }
  }
}

name: "48"
type {
  tensor_type {
    elem_type: FLOAT
    shape {
      dim {
        dim_value: 256
      }
      dim {
        dim_value: 64
      }
      dim {
        dim_value: 1
      }
      dim {
        dim_value: 1
      }
    }
  }
}

name: "49"
type {
  tensor_type {
    elem_type: FLOAT
    shape {
      dim {
        dim_value: 256
      }
    }
  }
}

name: "50"
type {
  tensor_type {
    elem_type: FLOAT
    shape {
      dim {
        dim_value: 256
      }
      dim {
        dim_value: 64
      }
      dim {
        dim_value: 3
      }
      dim {
        dim_value: 3
      }
    }
  }
}

name: "51"
type {
  tensor_type {
    elem_type: FLOAT
    shape {
      dim {
        dim_value: 256
      }
    }
  }
}

name: "52"
type {
  tensor_type {
    elem_type: FLOAT
    shape {
      dim {
        dim_value: 1000
      }
      dim {
        dim_value: 512
      }
      dim {
        dim_value: 1
      }
      dim {
        dim_value: 1
      }
    }
  }
}

name: "53"
type {
  tensor_type {
    elem_type: FLOAT
    shape {
      dim {
        dim_value: 1000
      }
    }
  }
}

dims: 64
dims: 3
dims: 3
dims: 3
data_type: FLOAT
name: "2"
raw_data: "…"

6912
finished
